models/model_20_03_2020-122919.pt (torch_old, 967299 bytes, 27 tensors)

conv1.weight f4 [4, 7, 7]
00000000: 87eb bcbc 6d75 c7bd 3724 1e3e 74e5 7a3e
00000010: 142a 39bb 0de3 44bd 4989 97be 6095 bd3d
00000020: ab6a 2fbd 7091 e7be 3b7b afbe 203d 38bb
00000030: 8897 6dbe 5ee5 b13e eb39 153f 55d4 14bf
00000040: 1dcf 003f e03a fd3e ae83 d43c ffaf 9a3d
00000050: 1bd8 48bf fd56 10bf b46a b83e 0251 02bf
00000060: ba1c f23e ab24 193d 42fb ffbe 97b8 2d3f
00000070: 6cba 28be 9824 7abe 2a53 b7be 9f87 5a3f
00000080: f4f1 83bd 725b 103f 8e73 c03e e871 7c3e
00000090: 4b50 843d 9ee7 173f ebee ddbd ea2c 0cbd
000000a0: 6eda fcbd 323e afbe 9611 cdbf 3473 6b3c
000000b0: e598 a03f 133a 343e e5a2 fabc f56e 313e
000000c0: f0cc ebbd 6dcb 91be 66c2 f2be 72f9 8b3d
000000d0: 1cfa b5bd 6653 e0bb db4b 08be 58b1 7ebe
000000e0: 5f4e 80bc 538f 9e3d 994f 27be 7367 f4bd
000000f0: 8218 3eba dbad 9e3e 2707 d7bd 8e35 f9be
00000100: 161f 82be 79bd 4f3f c004 dfbe 4e8b 403c
00000110: 83f4 8fbe 36d5 473e ef25 c13e a7c0 203e
00000120: 8565 07be fafa 423e 7cdd 813d 4ba1 36be
00000130: e49e 1cbe d04a ca3e 1735 5c3c 467f f7be
00000140: 3a42 193f 11c3 df3d deaf f73d 7808 f03e
00000150: f70e 99bc 61a5 1d3f b22c bebd 1309 c6be
00000160: 31c0 1e3d ab77 b93e 7438 a4be 212d d8bd
00000170: 817e 643f 728c cbbc 01d9 353f fb09 81bc
00000180: 9d68 4b3f 92a5 c2be 9128 ac3d 2151 1bbe
00000190: c777 89be 5325 b7be e6f9 3bba d8a5 1ebd
000001a0: c7c8 8dbe 7aeb c6bd fba3 9bbe 7702 64be
000001b0: 1523 c53e a572 7b3c 3f72 213e 5b97 dd3c
000001c0: f173 893e c54c 963e 8b18 f7be 446f c5be
000001d0: f924 9a3d 9774 823e e7f1 44bf de02 503e
000001e0: 4a9b 073f 7971 c4be ed39 37be 4575 8abd
000001f0: 6a30 cbbe 7ef3 703d ceb8 c63e 6b68 033f
00000200: 89ae 73be d515 d53e 839e dd3c 68f1 66bc
00000210: bed0 ba3e 13c5 a73e 903c b03d 0ffb 29be
00000220: bfbd 0e3e 4c2a 33bc a30d 473e 95ec 83bc
00000230: 0412 0d3e 8936 56be 2218 7bbe 3ac0 18be
00000240: 7072 8a3d 8798 0b3e 2138 8f3d a638 a9bd
00000250: d2e7 103e 28c9 44be 6407 3fbe a8cf 053d
00000260: 1543 8b3e c80b d03d bf53 b3bd cabf c83d
00000270: d2c0 b4be 0728 6f3c c657 ee3b 9cc3 b73e
00000280: 585c 133f d263 2abe c398 4d3d ddac ec3d
00000290: 0ef1 02be 0810 663d 4fa1 b43e 2bf2 603d
000002a0: 5959 913c 3c3b edbe 413a 85be 6909 cf3d
000002b0: 9c69 88bc 9557 8dbe c3ee b1be 3f61 10be
000002c0: 0fd2 46bd 4338 763d e5d9 a9be b0a5 83bd
000002d0: 7ea2 a8bd 4699 1a3e b92d 023c d910 9f3e
000002e0: 9128 b83e 4170 9e3c 9c26 39bd 5c89 a1bd
000002f0: 465f fb3e ccf4 13be d7ac b0bb 3642 903e
00000300: dd26 863e 4913 ad3c c9b9 3abc 69bf 043e
-0.023061527 -0.09739194 0.15443502 0.24501592 -0.002825384 -0.048068095 -0.29596928 0.09257007
-0.042826336 -0.45228148 -0.34273705 -0.0028112605 -0.23202336 0.34745306 0.582915 -0.5813649
0.5031603 0.4945898 0.025941696 0.075531 -0.7845475 -0.56382734 0.36018908 -0.5090486
0.47287542 0.037388485 -0.49996382 0.67859787 -0.16477364 -0.24428022 -0.35805637 0.8536319
-0.06442633 0.56389534 0.3758816 0.24652827 0.06460627 0.59337795 -0.108365856 -0.03422252
-0.1234635 -0.3422714 -1.6020992 0.014370728 1.254666 0.17600279 -0.030595252 0.17327483
-0.11513698 -0.28475514 -0.4741394 0.06834687 -0.08885595 -0.0068458794 -0.13310187 -0.24872339
-0.01566237 0.07742181 -0.16338958 -0.11933794 -0.0007251577 0.30992016 -0.10499411 -0.4867367
-0.25414342 0.8114849 -0.4355831 0.011751963 -0.28116235 0.19514927 0.37724254 0.15698491
-0.1322232 0.19041052 0.06341073 -0.17834966 -0.15294987 0.39510202 0.013440392 -0.4833929
0.5986668 0.10925878 0.12094091 0.4688146 -0.018683894 0.61580473 -0.09285869 -0.38678798
0.038757507 0.36224112 -0.3207432 -0.10555483 0.8925553 -0.024847243 0.71034247 -0.01575183
0.794565 -0.38016945 0.08406175 -0.15167667 -0.26849195 -0.35770664 -0.00071707217 -0.03873238
-0.27692243 -0.09712882 -0.30398545 -0.22266565 0.38503328 0.015347158 0.15766238 0.027049711
0.2684627 0.29355446 -0.48260912 -0.3856145 0.07526583 0.25479576 -0.76931614 0.20313594
0.5297133 -0.38367823 -0.1789319 -0.06760649 -0.39685374 0.058825962 0.3881287 0.51331204
-0.23797049 0.4161822 0.027053123 -0.014095642 0.36487383 0.32767543 0.086053014 -0.16599678
0.1393957 -0.010935377 0.19438796 -0.016104022 0.13776404 -0.20919241 -0.24520925 -0.14917079
0.067601085 0.13632403 0.069931276 -0.08262758 0.14150932 -0.1921736 -0.18655163 0.03266874
0.27199617 0.10158497 -0.08756208 0.09802206 -0.3530336 0.014596946 0.007273647 0.35891426
0.5756278 -0.16639641 0.050194513 0.115564086 -0.12787268 0.056167632 0.3527932 0.05491845
0.0177428 -0.46334255 -0.26021007 0.10109217 -0.016651921 -0.27605882 -0.34752473 -0.14099596
-0.04854017 0.06011225 -0.33174053 -0.06428087 -0.08234118 0.15097532 0.007945471 0.3106754
0.3596845 0.019340636 -0.045202836 -0.07887527 0.49096125 -0.14448851 -0.005391698 0.28175515
0.26201525 0.02112736 -0.011396834 0.12963642

conv1.rnn.weight_ih f4 [21, 7]
00000000: 604a 9d3e 8c7a 9c3e f29e 4bbd 97ca ae3e
00000010: dc6a acbd bd30 23be 271d 06bf f871 6a3e
00000020: 94b7 adbe c549 fb3d c3af c53e 786d afbd
00000030: f94f f7be 8c47 cd3d 1e23 e03e bc37 febe
00000040: 94b9 863e e6f3 25bf 18b5 56bc 90de 153f
00000050: 5d9c 09bf f071 15bf 4e38 033f 0dd4 3d3f
00000060: f838 763e 5858 33bd 1565 a9be 8251 103f
00000070: eafb 2fbe 6b8f 373d 2909 8d3e 44a5 b73e
00000080: d599 cdbc 5ec4 86bd 4e89 a4be 343c 11bf
00000090: c82e 8cbe db95 d23d 45a3 bfbd acd8 e73b
000000a0: a897 0cbd 84d0 dbbd 477e 17bf e0bb 92be
000000b0: d796 163c 30e5 74bf 94a7 adbe 01a4 063f
000000c0: ec22 07bf 2202 1ebe 8ae5 a13b c3e0 a13d
000000d0: 0d08 3f3e b373 863c e306 ad3e b745 043b
000000e0: d779 cb3d 2574 e1bd 57ae 7f3e 9898 89be
000000f0: a8aa 083b 47ca 893e d27d 11bf 0aac febc
00000100: debc 9e3d 71e7 27be 44dc f0bd 12bd 83bc
00000110: 1c95 0abe da97 03bd 4be8 54bd 74f6 7f3d
00000120: eada 813d e190 f53d 91eb 28b9 a8d0 da3d
00000130: bfc9 3cbd c293 0a3e 87dd 4dbe e056 38be
00000140: 6c72 a63e c50b 1b3c c1c8 0bbe 4d98 e53e
00000150: b29e 5a3e dc42 3ebe 9eb8 0b3f 30f6 b93e
00000160: 3998 783c 0607 8abe 5d47 37be b44a 9d3e
00000170: 5bcd 27bd 5326 8fbe 56ac e1bd 87bb 4fbd
00000180: c230 7f3e 9790 11be 7e3e a7bd 9be1 1a3d
00000190: 15f2 453e bb0a 02be 0b39 5bbd 71cc 77bd
000001a0: 7795 933e 0a0e 82bd e39d 083e 5a66 643e
000001b0: b419 91bd c2b3 06bb e29a 9ebe 734f 27be
000001c0: 148a 913a 316f 26be be51 ab3e b7f0 ea3a
000001d0: 49e0 30bb e18c 82be 133a a4bc b0ca 403e
000001e0: aae2 873e 45ed cb3e 98e9 88be 44ae 8f3c
000001f0: cd3a ef3d 7c00 3b3e dff4 3ebe 0a3b c8bd
00000200: 479d 9abe 1582 92be 4a35 7d3c b3c5 c83d
00000210: 289b 6ebe 35c9 52be f125 aebd 823e da3d
00000220: 95c1 fbbd ebec b13b 8a58 b93e 69ef 7b3e
00000230: 5d23 2ebe 89fa 093f ed52 e43c 89ba 3b3e
00000240: 98d1 a4be dd9d 09be 58f7 30bd
0.30720806 0.30562246 -0.04971213 0.3413894 -0.08418819 -0.15936561 -0.5238823 0.22895038
-0.33929121 0.1226993 0.38610658 -0.085658014 -0.48303202 0.10023412 0.43776792 -0.49651897
0.2631346 -0.64825284 -0.0131047 0.5854273 -0.53754216 -0.5837698 0.5125779 0.7415169
0.2404517 -0.043785423 -0.33084932 0.5637437 -0.17185941 0.04481451 0.2754605 0.35868275
-0.025097767 -0.06580423 -0.32136005 -0.5673249 -0.2737944 0.10282489 -0.09357313 0.00707539
-0.03432432 -0.107331306 -0.5917706 -0.28658962 0.009191236 -0.9566221 -0.33916914 0.52594
-0.5278766 -0.15430501 0.0049406933 0.07904198 0.18655415 0.016412592 0.33794317 0.0020183155
0.099353485 -0.11008481 0.24968849 -0.26874232 0.0020853672 0.26912138 -0.5683261 -0.031087894
0.07750867 -0.16396882 -0.11760762 -0.016081367 -0.13533443 -0.03212724 -0.051979344 0.062490895
0.06340583 0.11990524 -0.00016109484 0.10684329 -0.046090838 0.13532928 -0.20104037 -0.1800189
0.32509172 0.009463255 -0.136508 0.4484276 0.213496 -0.18580192 0.5457858 0.3632064
0.015173011 -0.26958483 -0.17898317 0.30721056 -0.040967327 -0.27958927 -0.110191986 -0.05071595
0.24920943 -0.14215313 -0.08166216 0.03781281 0.19330628 -0.12699406 -0.053521197 -0.060497705
0.2882497 -0.06350334 0.13341479 0.22304669 -0.070849806 -0.0020553921 -0.3097754 -0.16338901
0.0011103773 -0.16253354 0.33460802 0.0017924522 -0.0026989153 -0.25498107 -0.020047223 0.18827319
0.26540118 0.3982946 -0.26740718 0.017539151 0.11681137 0.18261904 -0.18648098 -0.09776886
-0.30198118 -0.2861487 0.0154546 0.09803333 -0.23301375 -0.20584567 -0.085033305 0.10656454
-0.12292782 0.005429854 0.36200362 0.24603046 -0.17005678 0.5389791 0.027871573 0.18332876
-0.32191157 -0.13439126 -0.043204635

conv1.rnn.weight_hh f4 [21, 7]
00000000: ca08 9f3f 416e c5be 5128 973e 0f20 043f
00000010: a2a6 533e 0f0b c1bd be35 5ebe 4e71 f53d
00000020: 41c8 bf3f 8c87 683f 8c46 efbe 9b1b 3d3f
00000030: bae1 c4be 297c 8e3e 209d 4e3e 730c 673f
00000040: 97e4 d03f 8525 ac3e a623 df3e 5a6e 0cbf
00000050: 29db 0dbf 56fa c43d dea0 13bf aa63 e1be
00000060: 595a b8be ec7c 963e a23c f8be 932f c53c
00000070: 91a4 ee3e 4fcb 5c3d 52a0 6a3e c010 743e
00000080: 8859 80bf b76c f33f f345 d7bd cf56 89bc
00000090: 98dc e8bd 4fb7 9e3e 7eb6 c9be 63b4 0dbf
000000a0: d85a 863f 357e 93bf 9a72 54bd 5535 123f
000000b0: 76ff d93f a355 eabd 0b47 b23f f901 0a3e
000000c0: c964 4a3f dc89 96bd dcce 48be db20 adbe
000000d0: e57f fb3e d77b 293e ee75 9e3e f8d9 603e
000000e0: c60e 8e3e 4141 1b3e 4f75 0bbf fbd1 56bf
000000f0: 9a10 75be e238 763f 2055 82bd 5b65 c83e
00000100: 0058 64be a2d9 4f3f 5014 65bf 2682 833e
00000110: 26a5 f23e 279a 6cbe 97ff 00bd 557e 043f
00000120: ff97 a5be 82cf 1cbe d6d4 b1bd 62de 0bbe
00000130: 9411 8bbd a28b 8e3e 3d9d 4b3e a2b0 9abe
00000140: af33 22be 7154 853e a90c 523d 9175 24bf
00000150: 1123 923e 7a69 f7bd 6932 adbe 444a 6e3e
00000160: ffdf 763f badf 14bf d626 a03e dad6 2a3e
00000170: 9f9a 383e a68b d23e b921 1940 b83c 17be
00000180: 2d9e 183f 639d a83f e056 503f 4053 ba3e
00000190: adea 3d3f 126a a23f ebd1 90bd 29cb 9a3e
000001a0: b552 58be 375b 5c3e ba27 6f3f aae7 60be
000001b0: 5ea5 19be 6671 01be 0c95 e3be 9118 a73d
000001c0: 366d ffbc 0069 143f 8ce8 3c3f 9f88 1f3f
000001d0: 8a97 503f 20db 193f 8b68 d9be 78ff da3d
000001e0: d407 29be 6a06 553f ae5f 8e3f 7fef e33d
000001f0: da4d 16bf 1f6c 2c3f 84ed 3e3d f922 0a3f
00000200: b64a 973e cc06 6f3f 24bc 88bf 545f 39bf
00000210: c634 09bf f27a f7be 6f18 ecbc 5062 69be
00000220: 1f12 1d3f 5171 673f 2eaa 17bf 0129 273f
00000230: b5aa 253f 9020 da3e de11 503f 9f4c f7be
00000240: 8524 1c3f d506 f53c 3732 343f
1.2424557 -0.3856068 0.29522946 0.5161142 0.20669034 -0.094259374 -0.21700189 0.11984502
1.4982988 0.9083183 -0.4673351 0.7387025 -0.38453466 0.27829102 0.20177126 0.9025337
1.631976 0.33622375 0.43581885 -0.54855883 -0.55412537 0.0961806 -0.5766734 -0.4402135
-0.3600643 0.29392183 -0.4848376 0.024070537 0.4660993 0.053904828 0.2291272 0.23834515
-1.0027323 1.9017552 -0.10511389 -0.016765026 -0.113702 0.30999228 -0.39397043 -0.55353373
1.0496473 -1.152289 -0.051867105 0.5711263 1.7031085 -0.11442115 1.392793 0.13477315
0.79060036 -0.07350513 -0.1961016 -0.3381413 0.49121013 0.16551147 0.30949348 0.21958148
0.27745646 0.15161611 -0.54475874 -0.83914155 -0.23932114 0.96180546 -0.063638926 0.39139828
-0.22299194 0.81191456 -0.8948412 0.25685233 0.47391623 -0.2310568 -0.03149375 0.5175527
-0.32342526 -0.15313533 -0.08683173 -0.13659051 -0.06790462 0.27840906 0.198842 -0.30212885
-0.15840028 0.26040986 0.051281605 -0.6424189 0.2854238 -0.12080665 -0.33827522 0.23270518
0.9643554 -0.5815388 0.3127963 0.16683522 0.18027733 0.41122168 2.3926833 -0.14769256
0.5961636 1.3173031 0.8138256 0.3639164 0.7418621 1.268862 -0.07071289 0.30233124
-0.211253 0.2151917 0.9341999 -0.21963373 -0.15004489 -0.12640914 -0.4444965 0.081589825
-0.031180006 0.5797272 0.7379234 0.6231784 0.8148123 0.60099983 -0.42462572 0.10693258
-0.16506892 0.8321291 1.1122949 0.11129665 -0.5871254 0.6735248 0.04661323 0.53959614
0.29549187 0.93369746 -1.0682416 -0.72411084 -0.5359615 -0.48335987 -0.028820245 -0.2279141
0.61355776 0.9040728 -0.5924405 0.6529694 0.64713603 0.42602968 0.81277263 -0.48300645
0.60993224 0.029910484 0.7038912

conv1.rnn.bias_ih f4 [21]
00000000: dd9c 0b3f be41 b43e b3fd d43e 5bba d6bc
00000010: 0f7d a2be 29d3 71bd 2d6d 023f fa09 3b3e
00000020: 51df e53e d9c1 cf3e 3cc0 7a3e 86a2 a8be
00000030: 126c e1bd e35a 793f 648b 593f 5335 1cbe
00000040: b587 2ebe f44d af3e b1ff e3be 744f 85be
00000050: a21d 0a3f
0.5453623 0.35206407 0.41599807 -0.026211908 -0.31736037 -0.05903927 0.5094784 0.18265525
0.4489694 0.40577582 0.24487394 -0.32936496 -0.11006941 0.9740431 0.8497832 -0.15254717
-0.17043956 0.3423916 -0.44531015 -0.2603718 0.53951466

conv1.rnn.bias_hh f4 [21]
00000000: 7a58 333f 9a53 323f e12a 0a3f 3be6 f93d
00000010: 8eca e5be 8a34 823e 7f80 863f fd92 203f
00000020: 3362 b13d 526f 0d3f 987a 403f def1 2ebd
00000030: edf4 34be ad8e 2b3f 2070 05bd 9a28 823e
00000040: 16d9 883e e6ae 2fbe 2439 73bf d076 b1bd
00000050: 1bc7 423f
0.7005688 0.69658816 0.5397168 0.12202116 -0.448811 0.2543071 1.0507964 0.62724286
0.08661308 0.55247986 0.75187063 -0.04271113 -0.17671557 0.6701458 -0.032577634 0.25421602
0.26728123 -0.17156562 -0.95009065 -0.0866524 0.7608506

conv2.weight f4 [4, 64, 64]
00000000: 7562 693b 1cab 7a3d 2c6e 56be a55f 83be
00000010: 0cf8 0ebd d5b9 51bd 050e 12bd 0de3 f23d
00000020: 9680 b63d e380 763e ab78 533d 1ace 123e
00000030: 8711 533e 9138 26be 875d b03b 2d7a 1a3d
00000040: 557b 69bd 3e28 9f3d 34da f1bd a2b2 8e3c
00000050: cfc7 eb3d ae83 d73d d476 c73d 4f6e da3d
00000060: ffe4 453d 41e2 543e e365 203a 6b22 4fbe
00000070: b84e df3c cb72 1ebb 5cbf 63be 56b6 8f3d
00000080: 5332 49bd b4aa 09bd c3c9 f73d 0f4a 47be
00000090: eb36 4dbd f079 02bf 37f9 673d fb4e 8b3e
000000a0: 3d39 503e 04bd aebc 6f35 733e 19bf 57bd
000000b0: ddb0 083b e6a8 a3be 2d7b 2dbe c05c cdbc
000000c0: c70f 6ebc 8312 093e 32a1 5dbc c213 e03c
000000d0: 3156 afbd ab29 e63c e837 bebe 03de e43c
000000e0: 993c 0c3e 7866 aa3b d4ae 203e 6cf7 8fbd
000000f0: 05e5 ddbb 38db d5bc 2204 f13d e27d 6b3d
00000100: 9a79 f53e 78a4 f93d 7c9c 893d 1b5c a1bd
00000110: b280 843d a460 0d3e 8b03 9fbc dcc7 cfbd
00000120: ab91 01be 75d1 2e3e 2826 cabe ca3d 9e3d
00000130: e73e 2cbe 9004 ce3d 6fa2 19bd 79b5 543e
00000140: 2199 813d 1694 9b3e 4a82 b43d 5805 8b3d
00000150: 8c54 8cbd 4b66 a93d d0e0 ba3c cb97 7dbc
00000160: 0c02 5abd ae45 1e3d ebb4 fd3c 720d 80bd
00000170: 7770 2ebd ddcc 183d 79f2 80be a577 babc
00000180: 53e4 1b3e ad84 563d 47ac 07be c548 1cbe
00000190: 0ac3 80bd 836b 853d f6f3 20bd c34b 51be
000001a0: 03f6 aabe 6d03 8f3d c38f bc3d 8df8 f3bc
000001b0: 9ffc 423c d841 2b3d cb7a d83d aef6 383d
000001c0: 0f60 a23c 10d8 3d3c 5ec2 e3bd c24c a0bd
000001d0: 4164 5e3d 4365 993e 221c 0dbd 5002 ad3d
000001e0: fe75 223d 4ed8 343e 52e2 cdbc 709b 073e
000001f0: b601 86bc c63c 353e bce0 ec3d 2630 fd3c
00000200: 70b5 15be fff8 9dbd 8fb5 cf3d cb72 b13d
00000210: 6069 ea3c 56b1 b23e 72db 853e 0120 37be
00000220: 1a75 43be 65a5 71bd bd99 b23c a74b a6be
00000230: fad2 413c 5eec 6bbd 855c f13c 5a09 5abe
00000240: 51e6 26bd 1c6f 6cbd 2037 90be 4e09 973d
00000250: 9273 333e 91db e83d f2d8 c6ba 1113 2f3e
00000260: 2792 d1bd b247 07be 8e26 6c3d dcc9 003d
00000270: 46b5 56bd 584c 2a3d 274a d33e 5f4f 10bd
00000280: 8fce 90bd 2aca e23d cd51 73bd 217e 5dbb
00000290: f812 0d3b faeb e43b 7758 ed39 539a afbb
000002a0: 4f14 88be e9bc 65bd 6f5b 9e3d 108f 753d
000002b0: 4d2b f2bd 42d9 ebbe ffb8 f13c 4ada 3a3d
000002c0: cb05 4d3c c03a 003d 8d09 613d 1b04 353d
000002d0: 843e 883d b56b adbe dbff dd3c 5803 323d
000002e0: c6be 39be 6a63 0fbc 52ef 80bd ef0a 88bd
000002f0: 67fe 963e a9fb 573e 3417 b7bb 0a19 0d3d
00000300: 4852 6e3d d0cb 8d3c 77b9 eebc 23d8 ea3c
00000310: 6c6d a2bc d8e4 d03e 9ce0 693e 5cc7 e63d
00000320: 9fac 283e 4355 c5bd 47e4 f43b d3c9 2fbe
00000330: a2c5 a83d 54aa aebd 5dbf 203d 5aa2 71be
00000340: 8b4b ad3c 0f0e d83d afd4 963d dbba 4cbd
00000350: 7f75 c9bd 2daa 29bc 9ca6 edbc 4f8b bfbd
00000360: 668d 7e3c edf3 1fbe 7726 e53c 1a18 fd3d
00000370: f733 9abc d022 f3bd 4b48 9fbe d072 1abe
00000380: 8bc1 9abd fa2a 33be 5cea 623d 8f45 b8bd
00000390: 9120 25be 485f 123e 8e6a 1ebc 3ccc e1bd
000003a0: 6c39 98bd 084f 273e d4c2 c93d 6e03 6f3d
000003b0: 7bf3 563d 7361 b9be 721f 733e 8ba3 afbc
000003c0: 7cc2 b0bd 07ed 19be 51ea 563d 8a0b 98bd
000003d0: 4934 933d cdef 8cbe 11b9 203d 407e 793d
000003e0: 9121 c03c a6c8 c83d f8b2 1e3e 082f 0b3e
000003f0: 0958 b5bd bd34 ddbd be0c 1dbe cf60 8f3d
0.0035611663 0.06119834 -0.20940465 -0.25658908 -0.034904525 -0.051202614 -0.0356579 0.11859713
0.089112446 0.24072604 0.05162875 0.14336434 0.20612155 -0.16232516 0.005382243 0.037714172
-0.057002384 0.077713475 -0.11809197 0.017419163 0.1151272 0.10523163 0.097394615 0.10665571
0.04831409 0.20789434 0.0006118698 -0.20227973 0.027259216 -0.0024177309 -0.22240967 0.070172
-0.04912026 -0.03361006 0.1209903 -0.19461845 -0.050101202 -0.5096731 0.056634154 0.27208695
0.20334335 -0.021330364 0.23750852 -0.05267248 0.0020857372 -0.31964797 -0.16941519 -0.02506864
-0.014530129 0.13385968 -0.0135272015 0.027353171 -0.085613616 0.02809604 -0.37152028 0.027937895
0.13694991 0.0052002035 0.15691692 -0.07029614 -0.006771686 -0.026105508 0.117683664 0.057493098
0.47944337 0.12189573 0.067193 -0.07878896 0.06469859 0.13806397 -0.01941087 -0.10145542
-0.12653224 0.17072089 -0.39482236 0.07726629 -0.1682087 0.10059464 -0.037508424 0.20772351
0.06328035 0.30386418 0.08813913 0.067881286 -0.068520635 0.08271464 0.022812277 -0.015478085
-0.05322461 0.03864067 0.030970057 -0.062525645 -0.042587724 0.037304748 -0.25184992 -0.02276213
0.15223818 0.052372623 -0.13249312 -0.15262134 -0.06287201 0.06514647 -0.03929516 -0.20439057
-0.33390817 0.06983075 0.09207108 -0.029781604 0.01190105 0.04181084 0.10570296 0.045157127
0.019821195 0.011587158 -0.11121057 -0.078271404 0.05429483 0.2996007 -0.034450658 0.08447707
0.039663307 0.17660639 -0.025132332 0.13242888 -0.016358238 0.17698964 0.11566302 0.030906748
-0.14619994 -0.07713508 0.101420514 0.08664473 0.0286147 0.34900922 0.26143986 -0.17883302
-0.1908764 -0.058995623 0.021801824 -0.32479593 0.011830086 -0.057598464 0.029463062 -0.2129263
-0.04074699 -0.05772315 -0.28167057 0.073748216 0.17524555 0.11370004 -0.0015170856 0.17097117
-0.102329545 -0.13210943 0.057653956 0.031442508 -0.05241897 0.041576713 0.4126751 -0.035231944
-0.07070648 0.11073716 -0.059404183 -0.0033797103 0.0021526199 0.0069861384 0.00045270074 -0.005358973
-0.26577994 -0.056088362 0.07732283 0.05995089 -0.11824665 -0.46064192 0.029507158 0.045618333
0.012513588 0.03130603 0.05494075 0.04419337 0.06652549 -0.33871236 0.02709954 0.04346022
-0.1813918 -0.0087517295 -0.06295647 -0.066427104 0.2949097 0.21092094 -0.005587483 0.034447707
0.05818394 0.0173091 -0.02914117 0.028667515 -0.019827567 0.40799594 0.22839588 0.112684935
0.164721 -0.09635403 0.007473502 -0.17166834 0.082408205 -0.08528581 0.039245 -0.23597088
0.021154186 0.105495565 0.07364785 -0.049982887 -0.09836864 -0.0103555145 -0.02901011 -0.09352743
0.015536642 -0.15620394 0.027972443 0.12358113 -0.018823607 -0.11871874 -0.31109843 -0.1508286
-0.07556447 -0.17496863 0.055399284 -0.08997642 -0.16125704 0.1429416 -0.009668959 -0.11025283
-0.07432827 0.16338742 0.09851614 0.05835288 0.052478295 -0.3620716 0.23742464 -0.021440288
-0.08630845 -0.15031825 0.052469555 -0.07424076 0.07187707 -0.27526703 0.039238993 0.060911417
0.023453506 0.09803896 0.15497959 0.1359216 -0.08854682 -0.10801075 -0.15336892 0.07000887

conv2.rnn.weight_ih f4 [192, 64]
00000000: 59c7 79be 9b12 793f 4353 a4bd 542c 573c
00000010: 0afd 3bbe 2809 d5be f735 b4be d0c8 d93d
00000020: 6dd1 503e 0370 373f c429 bebd b283 833f
00000030: e98b 5ebf 9bb5 303f c61a d8be e330 8c3f
00000040: eed6 07bf 5ce9 a73e 0334 033f 8f96 683e
00000050: 51b5 b2be 4e6f ad3e 1d1b a0be bc15 7fbd
00000060: 20fb 523e a0d6 2e3f cf45 b23e c6d4 96be
00000070: 062b 08be 2cad 6c3f 3e38 873e 4053 a4bd
00000080: a4c2 863f 9188 8a3f 98b5 7b3e cf86 27be
00000090: 1bb1 383d 8a0d 06bf 18c2 34be 56a4 b73c
000000a0: fe27 703e 9035 2cbf 9567 8dbf 5988 663f
000000b0: 6224 95be 5bb7 af3e 8984 b73e 67f0 36be
000000c0: 008a b53e 036b 2d3e f7b9 6ebc fddc 33bd
000000d0: 88c9 d53e 9a25 6d3e a904 ccbe 49a2 dc3c
000000e0: 7066 8b3d 97f3 d8be b80c aa3e d0b9 17be
000000f0: 6343 b4bd 9db8 f1be 07aa 04bf ee13 04be
00000100: 9e64 3d3d 51f6 1a3e 94ba acbd b116 973e
00000110: 9d4c ef3d 67e6 a3be 1b0b f23e 9966 fc3e
00000120: 6da1 d1be ae44 8e3e 2219 b53e d310 b63e
00000130: 9269 c8be bb98 683e 7afc 243e 91e5 903e
00000140: afd6 1a3f 1efb 843e ecd3 a5be 4d4e acbd
00000150: ab20 4c3f 4b1d 003e ab8f 8abf b1a8 3a3f
00000160: 27e8 0dbe 4ff0 0c3e 8d1b d2be bdb5 f1bd
00000170: d1fc d3be 92d3 9cbe 0bde 00be 6cc9 f23e
00000180: c665 8c3d b653 3c3f ee88 19bc 3f80 4a3e
00000190: f8df 663e 1e98 b73e c8d4 28bf 0909 d2be
000001a0: f9f9 7abe 5f8d 68be 580f 033e 8451 c5bc
000001b0: ce54 80bf f1e5 0ebe ceb6 1a3e 092e 27be
000001c0: 0486 20be cdf3 b8be c59c adbd 49f9 afbe
000001d0: 0608 f63d fdb9 91be 429a d93e ff41 d53e
000001e0: 1b32 84bf df99 a9be 93d9 0fbe ff82 3c3f
000001f0: e29b debd 6b66 273f 64f3 90bd 18ee 233f
00000200: 5b07 b23e 9983 903e c91c a23d c543 4ebf
00000210: 9c56 21bf 752e 4d3f e1b5 44be d9fa 33bf
00000220: 5b5d 983e bfa8 3abd 15fd a7be 45b0 013e
00000230: 2d2a 383f 3d01 bbbe 38d0 0a3f 7b91 e53e
00000240: b96f 31bf fe59 343e 901a 823e dc75 5dbe
00000250: 260e 40be 4fab 95bd ef11 673c d789 b6be
00000260: bc7d 643f d723 aebe dcbe a13e ef01 ad3e
00000270: 65da aa3e d7fb 68bf 2db1 533d db71 49be
00000280: 38c7 cc3d 438f 14bf 10ec 6bbe 57a4 febe
00000290: 8e35 01be afbb c2be 3c81 253f cf5e 043f
000002a0: 24ab 943e 2b62 1e3f 6615 523e 22cf 093f
000002b0: c8e0 b53e d9ae 653d 4e28 b1be 94f2 8b3e
000002c0: 0c6d 85be 8331 d93d d632 753d c625 a4be
000002d0: dafa 863e aed3 51be 1262 e5be 8cf9 08bf
000002e0: 9aa6 203f da6e 193f b811 dabe 4abc c4be
000002f0: 9386 2abe d6c3 113f 39cf ac3e 27f5 63be
00000300: 6d7f 7abe 4f09 423f 419f 57bf 7d15 f1be
00000310: 1eee a0bd 4137 f7be 2854 e33e 23ba d53e
00000320: 9b24 9f3e 0b86 16bd b842 c53e 22ad 0c3e
00000330: 5f81 e7bd 777e 073d 256c 14bf 0569 1ebe
00000340: f8de 55be 0ed8 9dbd be6d 443e d581 dbbe
00000350: 9a7c 1dbf cd5d 9abe 264f a2be 1138 a43f
00000360: a0b5 4c3c 7d7d 453f 2cc0 083f db5a 153f
00000370: 7b26 da3d 99de 533e c24e 48be 0e25 173e
00000380: b0b1 3a3b 6353 113e 96e8 8f3f 20d7 ea3e
00000390: 888e c8be 3b24 12bf 7718 883e e785 3ebe
000003a0: ee5a dc3e 963b 21be 1aa7 9dbe a074 34bf
000003b0: 5be8 163f f7ca 21bf 67ce 203e 62e7 97be
000003c0: d053 6b3f e748 253d 30e8 e0be 38c0 343f
000003d0: 6c5f 41bf 07d5 38be d4d6 343e c08e f7be
000003e0: 7c8c b43e 7a92 c3be 5f6d d23e 8812 9ebf
000003f0: 91f2 d13e e55e 32bf d5f8 01be 3a3c 1f3e
-0.24392451 0.97294015 -0.080236934 0.013133127 -0.18358245 -0.41608548 -0.35197422 0.10634005
0.2039239 0.7165529 -0.0928531 1.0274565 -0.86932236 0.6902711 -0.42207927 1.0952419
-0.5306233 0.32795227 0.5125124 0.22713684 -0.34903958 0.3387398 -0.31270686 -0.062276587
0.20603609 0.6829624 0.34818885 -0.29459208 -0.13297662 0.9245174 0.26410097 -0.08023691
1.052815 1.0822927 0.24580991 -0.16360019 0.045090776 -0.5236441 -0.17652166 0.022417229
0.23452756 -0.6726923 -1.1047236 0.900518 -0.2912932 0.34319577 0.35843304 -0.17865144
0.35456848 0.16935353 -0.014570705 -0.043911923 0.4175532 0.23158875 -0.39847305 0.026932852
0.06806648 -0.42373344 0.3321283 -0.14816976 -0.088019155 -0.4721116 -0.5182194 -0.12898228
0.046238534 0.15133025 -0.084340245 0.295095 0.11684535 -0.3201172 0.47274098 0.49297026
-0.4094347 0.27786773 0.35370737 0.3555971 -0.39143044 0.22714512 0.16111937 0.28300145
0.6048383 0.25972837 -0.32388246 -0.08413372 0.7973735 0.12511174 -1.0825094 0.7291365
-0.1385809 0.13763545 -0.41036645 -0.11802242 -0.4140382 -0.30630165 -0.12584703 0.47419298
0.06855349 0.7356523 -0.0093710255 0.19775485 0.22546375 0.35858244 -0.6594968 -0.41022518
-0.2450942 -0.22710179 0.12798822 -0.024086721 -1.002588 -0.13954903 0.15108797 -0.16326155
-0.15676123 -0.36123505 -0.08477167 -0.34369877 0.12013249 -0.2846221 0.42500502 0.41651914
-1.0327791 -0.33125207 -0.14047842 0.73637384 -0.10869576 0.6539065 -0.07077673 0.6403518
0.34771237 0.282254 0.079156466 -0.8057216 -0.6302278 0.8014901 -0.19210006 -0.7030464
0.29758725 -0.045571085 -0.32810274 0.12664898 0.71939355 -0.36524382 0.54223967 0.44837555
-0.693111 0.17612454 0.2541089 -0.21626991 -0.18755397 -0.07308065 0.014103397 -0.35652038
0.89254355 -0.3401172 0.31590927 0.33790538 0.33369747 -0.9100928 0.05168264 -0.19672339
0.099989355 -0.580311 -0.2303927 -0.49734756 -0.12618086 -0.38033816 0.6465032 0.51707166
0.2903682 0.6186854 0.20515975 0.53831685 0.35523057 0.05607495 -0.34601063 0.2733351
-0.2605976 0.10605147 0.059862934 -0.3206007 0.2636326 -0.20490906 -0.44801384 -0.5350578
0.62754214 0.5993477 -0.42591643 -0.38424903 -0.16652898 0.56939447 0.33751848 -0.22261487
-0.24462672 0.75795454 -0.8422738 -0.47086707 -0.07857917 -0.48284343 0.44400144 0.41743574
0.31082615 -0.036748927 0.38527465 0.1373792 -0.113039725 0.03307959 -0.57977515 -0.1546975
-0.20885837 -0.07707225 0.19182488 -0.4287249 -0.6151825 -0.3014969 -0.3170101 1.282961
0.012494475 0.77144605 0.5341823 0.5834176 0.10651871 0.20690383 -0.19561294 0.14760229
0.0028487258 0.14191966 1.1242855 0.45867252 -0.39171243 -0.57086533 0.26581165 -0.18605767
0.43038124 -0.15745386 -0.3079155 -0.70490456 0.58948296 -0.63200325 0.15703736 -0.2966872
0.9192476 0.04035273 -0.43927145 0.706058 -0.7553623 -0.18050013 0.17660075 -0.48351097
0.3526343 -0.3819769 0.4109907 -1.2349405 0.41005376 -0.6967605 -0.12692578 0.15550318

conv2.rnn.weight_hh f4 [192, 64]
00000000: 773b 1a3f fa0b b6be 172b 183f 42c2 05be
00000010: 0016 113f 68a3 be3e 0d29 863e 78be 653d
00000020: 2f6b 1cbf 482f 34bf 96fe 5c3f 31f9 9abe
00000030: 5212 933f 176a 3fbf 195a 5bbe d4cf 003f
00000040: 7f56 253e 8269 68be 4e25 26bf 3299 e6bd
00000050: 19c2 623e 96b0 51bf e54c 5abf e734 0bbf
00000060: df43 bbbf 6eae 273e 3848 b03c acb3 423f
00000070: a46c fc3e f6d3 acbd e5fa 02bf 0371 ba3e
00000080: a698 64bf 1b81 39be 1c60 f5be 54f8 08be
00000090: 415e 81be 60e9 223f b143 993c 7e3e b23c
000000a0: ff23 f43b 01d5 66bf 393f b6be f7f4 3f3c
000000b0: 7eac 38be 84a3 b03e 17fe 8dbe c98a 1c3f
000000c0: ddad 02be 7203 603f b503 c4bd 6f9c 29be
000000d0: 5210 9a3e e914 b5be 6ad1 b23d ef9d 763e
000000e0: e2da 3a3e 179d 703e 71e7 9cbe 25de 813e
000000f0: 13d6 6fbf 8089 273f c458 213e ae6e b83d
00000100: 84c5 84be 18cf ca3e 0157 2dbf 1c4c 85bd
00000110: 7e8b 5bbe 2b41 293f 6812 78bf b3fc 09bf
00000120: 4555 a33e d391 013e b6fe 07bf 86db 2a3f
00000130: 1f4a 84bf 3dd6 54bd cb73 e83e 43f3 b23e
00000140: 37df 0c3f 7735 8fbf b432 6abf e406 413f
00000150: 93e6 7abe edaf a1be 37aa 073f 18ea 553f
00000160: 35e7 933d 2613 b3be 076e c83c 57f8 07be
00000170: b0ad 103f 842e c13d 445c 983e 4d85 4ebf
00000180: 1106 933e d8fd 563f 3d9d eebe 68ed 0c3f
00000190: 53d3 3fbf 4aaf b1be 7d1f e4be 89c4 863e
000001a0: 9a33 fe3e 5c1c 07be e0f9 1f3f 44e4 8abe
000001b0: 02d7 bcbd 65e2 2a3f 976c 9ebe fc7b 063f
000001c0: 376f 14bf fe3f 9e3f 69f0 313f 41fa d7be
000001d0: 4cf5 19be 5e89 c93e b056 abbe f955 bdbe
000001e0: eacd 363e a46b 87be 2c03 febe b2ef 2b3f
000001f0: 3d62 19bd 2eee 113d 4559 db3d 3001 9c3d
00000200: 9b36 6cbf da82 903f bcd0 64be 4611 b3bf
00000210: 72e5 59bf d5bd b93d 4cf5 5f3e e6b6 d4be
00000220: 6bb6 c13d 398a 4ebd 5b8e f93d 9d6e b13f
00000230: 3839 4a3f 3c95 bbbe 8395 babe bbb9 74be
00000240: e15f 19bd 401e 1bbe a359 bebd 8d87 bebd
00000250: a677 aabe f57a bc3e 8ab8 da3c 0fc8 ab3e
00000260: 0c24 a6be de5c 3c3e d632 a03e 0e20 a93f
00000270: 2f6c 843f c85e abbf 0464 9fbf 99f7 413f
00000280: 5193 a8be 782f a13e feea 3a3e 7f68 cb3d
00000290: eca8 77bc 9d5f ddbd 69ab e6bc ea1d bd3e
000002a0: f9d1 26be 3daf aa3e afdb 0f3e 2434 d3bc
000002b0: 5949 d63d f0c1 423e 5199 72be e4df 783e
000002c0: 3259 343e 0a16 f4be 2671 fbbe d904 ecbe
000002d0: 449a 0ebf a683 483e dd73 b8be b4f3 a93e
000002e0: 7b12 9e3e ea55 f43e afd2 023e 8724 e23e
000002f0: 0813 24be 55de 98be 718b 2fbe 2aa1 99be
00000300: 7be0 383e 5456 be3e cb44 243e 86ba c0bc
00000310: 6be3 373f 907c 28bb 2236 343e 1b8a 1fbf
00000320: f696 5a3c 7ebc 80be 40f4 833f fd90 34bf
00000330: 83f2 1abd 5f49 463f d0a1 3c3e d52b b3bd
00000340: c254 113f 4fb6 82bf 26c0 a93e 4805 7abc
00000350: afef 1d3d 6f9b 1dbf 56f1 0d3e 43b5 22bf
00000360: b3e7 a83e 187e e2bd e9c3 c43e ee08 e63e
00000370: 3cd3 51bf e927 f43e a79f 0fbe 1402 48bf
00000380: aa2b 1c3f b9dd 893d 133f debe d486 873e
00000390: e0bd 57bf d84c 13be 0a51 763f 718a 89be
000003a0: 3104 78bf 4608 b9be f9e5 bcbe b651 e6bd
000003b0: baa9 4b3e 57f9 893e 53f7 1cbe b2f7 8d3f
000003c0: 9f70 57be 3ec8 563f bb9d 16be 7c14 9fbe
000003d0: c7a4 6dbe e638 87be 5536 333e b9b0 98be
000003e0: 51ee ddbe 146c d2bd b547 7a3e efb7 93bf
000003f0: 44cd ea3e 33b4 80bd 3315 2a3d edd9 f5be
0.60246986 -0.35556012 0.5944075 -0.13062385 0.56674194 0.37234044 0.26203194 0.05608985
-0.6110105 -0.70384645 0.8632597 -0.30268243 1.1489966 -0.74771255 -0.21421088 0.5031712
0.16146277 -0.22696498 -0.6490067 -0.112596884 0.22144355 -0.81910074 -0.8527358 -0.543776
-1.4630088 0.16375133 0.021518812 0.7605541 0.49301636 -0.08438866 -0.51164085 0.36414346
-0.89295423 -0.18115656 -0.47924888 -0.1337598 -0.25267223 0.6363735 0.018709036 0.021758314
0.00745058 -0.9016877 -0.3559511 0.011716119 -0.1803455 0.34499753 -0.27732918 0.6114927
-0.12761636 0.8750526 -0.095710196 -0.16563581 0.30090576 -0.35367516 0.08731349 0.24083684
0.1824756 0.23497425 -0.30645326 0.25364795 -0.93686026 0.65444183 0.15756518 0.090054855
-0.25931942 0.39611125 -0.6771088 -0.06508657 -0.21439931 0.66115063 -0.96903086 -0.53901213
0.31900993 0.12653284 -0.53123033 0.66741216 -1.033512 -0.051962126 0.45400843 0.3495122
0.550281 -1.1188191 -0.91483617 0.7540114 -0.2450202 -0.31579533 0.529941 0.83560324
0.072218336 -0.34975547 0.024466528 -0.13278328 0.56515026 0.094327 0.29757893 -0.8067215
0.28715566 0.83981085 -0.46604338 0.55049753 -0.7493183 -0.34704047 -0.44555274 0.2632182
0.49648744 -0.13194412 0.62490654 -0.27127278 -0.09220697 0.667517 -0.30942222 0.52532935
-0.579822 1.2363279 0.6950746 -0.42183116 -0.1503498 0.39362615 -0.33464575 -0.36979654
0.17851987 -0.2644931 -0.49611795 0.6716262 -0.037447203 0.035627536 0.10710386 0.07617414
-0.9227082 1.1289933 -0.22345251 -1.3989646 -0.8511573 0.09069411 0.21870917 -0.4154579
0.094586216 -0.05042479 0.12185355 1.3861881 0.7899356 -0.36637294 -0.36442193 -0.23898976
-0.037444953 -0.15148258 -0.092944406 -0.09303198 -0.3329441 0.3681256 0.026699323 0.3355107
-0.32449377 0.18394801 0.31288785 1.3212907 1.0345515 -1.33883 -1.2452397 0.7576843
-0.32924893 0.31481528 0.18253705 0.099320404 -0.015115958 -0.108092524 -0.028157907 0.36936885
-0.16291036 0.3333682 0.14048646 -0.025781699 0.10463209 0.19019294 -0.23691298 0.24304157
0.1761215 -0.47673064 -0.49109763 -0.46097448 -0.5570414 0.1958147 -0.36025897 0.33193743
0.30873474 0.47721797 0.12775682 0.44168493 -0.16022885 -0.29857126 -0.17143036 -0.3000577
0.18054383 0.37175238 0.16041867 -0.023526441 0.7183139 -0.002570901 0.17598775 -0.6232011
0.013341656 -0.25143808 1.0308914 -0.70533735 -0.037828933 0.77455705 0.18421102 -0.08748595
0.56769955 -1.0211886 0.3315441 -0.015260048 0.03855866 -0.615653 0.13861594 -0.63557833
0.32989272 -0.11059207 0.38430718 0.44928688 -0.81962943 0.476867 -0.14025746 -0.7812817
0.61004126 0.06731743 -0.43407497 0.26470053 -0.842741 -0.14384782 0.96217406 -0.26863435
-0.96881396 -0.36139125 -0.36894205 -0.11246054 0.19888964 0.26948044 -0.15328722 1.1091216
-0.21039055 0.83899295 -0.14708607 -0.31070316 -0.23207389 -0.26410598 0.17501195 -0.2982233
-0.43345883 -0.102745205 0.24441417 -1.1540507 0.4585973 -0.0628437 0.041524123 -0.48017827

conv2.rnn.bias_ih f4 [192]
00000000: 3b6a 153f 1f20 a93f db0d a03e 8f37 543f
00000010: fbb3 2d3f d5ca 613f 8826 c43e 8ce2 633f
00000020: f1b7 aa3f 709e e4bd e527 bd3f 83dc 433f
00000030: b378 373f 58d2 f23f c331 503f 531a 513f
00000040: 8a47 713f 3b01 513f 1156 8f3f 757d 823f
00000050: d5b9 7b3f a657 a83f 7aa2 e03e 075a b1be
00000060: 7620 353f f166 663f abc8 0f3f 0848 123f
00000070: 1f30 553e 70b3 bf3e 72f5 893f 10f8 173e
00000080: 683d 8d3f b4b8 6d3f 172b ad3f 5c73 883e
00000090: e1eb 563f 117f 753f f406 bc3f 3f48 5a3f
000000a0: fa1b d73e 18d6 383f 36e3 243f 8c81 8c3f
000000b0: be65 923f 325f a33f ae28 8e3f 5bc9 86be
000000c0: 8e74 cd3f e100 a63f 18ec 7d3f bdc2 fc3d
000000d0: e245 d03f 703b ab3f bf9f 4a3f 8c44 8e3f
000000e0: b8ee 1f3e df20 f93e c533 a13f 5b35 243f
000000f0: 04cc f93e 7e38 d83f 9386 083e 4d82 853f
00000100: 4a0b c13f a758 6b3f bd19 ab3f 4f48 823f
00000110: 0e9f cf3f 779c 323f fcbe 7c3f 2c66 913f
00000120: 008e 863d 37f9 f33f a4b1 a33e f95b 3c3f
00000130: 0648 513f 2631 8e3e 6de7 1a3f 9e0d 993f
00000140: d68c a53f 6c4a 423f 0242 bcbc 6c8c f63e
00000150: 1f80 b23f 92b0 db3e abfb 313f e461 cb3f
00000160: 35ae 2e3f ad3e 3c3f 5780 913f afb6 943f
00000170: fe42 203e b099 a13e 589b 003f 722c 863f
00000180: 2eb1 2f3f dc16 c83d 0877 ac3f 5382 be3f
00000190: 65e1 833d 121e 2d3f 6847 383e 8d7f 483f
000001a0: 9853 bd3f b594 103f 5a88 763e 9a23 d93d
000001b0: bcbd 903e c104 6c3f 7e49 92be 34d5 a43f
000001c0: 46b2 7f3d 0b59 833f 01a1 2abe 0512 853e
000001d0: d1da 423f d172 3e3d 3b1d ab3f da33 0d3f
000001e0: 703b c33f e97a 9c3f 2670 a43f 9555 393f
000001f0: 591c 0740 87aa 333f b65e c13f d9d1 753f
00000200: 30dc 06bf ad01 52bd f5e7 5a3f 5421 35bf
00000210: d853 89bc baa8 0b3e 74b0 debe 4dfd 9bbe
00000220: 8102 d5be a3bd 033f 0939 abbe a44c 4fbe
00000230: de2e a43e 5e69 eebd 5384 443f a7cd dcbe
00000240: 3f80 353f 37ad b3be 78ba 1f3f fc70 cb3e
00000250: 4b3f 34bf 4fc0 123f a69a eebc 7485 ea3e
00000260: 367f c5be e3f4 51be d361 19be 3a3c bbbe
00000270: 5845 543e dd76 2f3e 478f 3f3e 4a55 09bf
00000280: c575 273f 2d5c ad3e ccce 26bf 2450 513e
00000290: 5f8a 3bbf 6d13 153f 583b 83bf 32f9 3f3f
000002a0: 158c aa3e 911f ffbd eaa0 8cbd cc48 e73c
000002b0: 2fe1 cc3e 2b0f 783f f374 ee3e ded6 123f
000002c0: 601b d2be 7a87 e3be 8afb a43e f734 063f
000002d0: 0230 3bbe 2629 4bbe f183 b53e 55be 833e
000002e0: 1247 2f3e b746 55be 4cc6 843e 20bd 05bf
000002f0: 168a f3be 2ae4 103f 26c3 773e ac71 88bf
0.5836522 1.3212928 0.3126057 0.82897276 0.67852753 0.8820012 0.38310647 0.8901756
1.3337384 -0.11163032 1.47778 0.7650835 0.7166855 1.8970442 0.8132593 0.8168079
0.94249785 0.816425 1.119814 1.0194536 0.9833043 1.3151748 0.4387396 -0.34638998
0.70752656 0.90000826 0.5616557 0.5714116 0.20819138 0.37441587 1.0778029 0.14840722
1.1034365 0.9285996 1.3528775 0.26650512 0.8395367 0.9589701 1.4689622 0.8526649
0.42013532 0.7220168 0.64409196 1.0977035 1.1437299 1.2763426 1.1106164 -0.26325497
1.6051195 1.2969018 0.99188375 0.12341831 1.6271327 1.3377514 0.79150003 1.1114669
0.15618408 0.4865789 1.2593924 0.64143914 0.48788464 1.689224 0.13332586 1.043039
1.508157 0.9193215 1.336723 1.0178317 1.6220415 0.69769996 0.9872892 1.1359305
0.06570053 1.9060429 0.31971467 0.7357784 0.81750524 0.27771872 0.6050938 1.1957281
1.2933605 0.7589481 -0.022980694 0.48154008 1.394535 0.4290815 0.6952464 1.5889249
0.6823457 0.73533136 1.1367291 1.1618251 0.15650555 0.31562567 0.50237036 1.0482314
0.6862973 0.09769985 1.3473825 1.4883522 0.06439475 0.6762401 0.1799599 0.7831963
1.4791136 0.5647691 0.24075451 0.106024936 0.28269756 0.92194754 -0.28571695 1.2877564
0.062425874 1.0261549 -0.1666298 0.2599031 0.7611514 0.046496216 1.3368295 0.55157244
1.5252514 1.2225009 1.2846725 0.7239621 2.1111052 0.7018208 1.5107028 0.9602333
-0.5267973 -0.05127113 0.8551019 -0.7075398 -0.016763613 0.13638583 -0.43493998 -0.3046669
-0.41603473 0.5146124 -0.33441952 -0.2024408 0.32067007 -0.11641191 0.7676441 -0.4312565
0.70898813 -0.3509309 0.62393904 0.39734638 -0.7040908 0.5732469 -0.029126476 0.45804942
-0.38573617 -0.20503573 -0.14978723 -0.36569387 0.20729578 0.17135186 0.18707 -0.53645766
0.6541408 0.33859387 -0.65159297 0.20440727 -0.7325801 0.58232766 -1.0252485 0.74989617
0.3331 -0.12457193 -0.068666294 0.028232954 0.4001555 0.96898144 0.465736 0.5735911
-0.4103651 -0.44439298 0.3222316 0.5242457 -0.18280032 -0.19839916 0.35452226 0.2573115
0.17116955 -0.20827757 0.25932539 -0.52241707 -0.4756629 0.5659815 0.24195537 -1.065969

conv2.rnn.bias_hh f4 [192]
00000000: 5d9f 1f3f 5d9b a23f a403 6a3e 2359 4f3f
00000010: f566 213f 75db 553f ea81 1e3f ef91 573f
00000020: cf2f a93f ffef 01be 50dd c03f 8703 633f
00000030: 9670 3e3f a612 0140 7f07 313f c4d6 383f
00000040: c164 563f bafc 213f 8439 893f 0010 843f
00000050: 7879 9b3f d7ad bc3f 4253 d93e c29c 1cbe
00000060: 34d4 353f 0103 463f 6033 093f 40d5 4c3f
00000070: 3207 6c3e 3576 eb3e e745 8c3f 0dce 3d3e
00000080: 9ce2 6d3f 99b7 4c3f bfc0 9e3f 3033 a33e
00000090: 66ef 7e3f dd8c 683f 4b51 b13f 8062 6e3f
000000a0: 91b7 de3e 6099 0c3f d7e2 1d3f 3804 a13f
000000b0: 4ce1 963f 774d 913f 5b3f 8c3f 5292 e9bd
000000c0: fd94 d43f 2873 a13f bfda 823f 188c 413e
000000d0: 6eae c93f 0bdf ab3f 2510 673f cf4f 9a3f
000000e0: 4b92 c03d f2da e23e c91a ad3f 2c36 013f
000000f0: 0249 8d3e 71ae c23f ce5b 3b3e f1a6 823f
00000100: 3392 d53f cea4 543f bbe0 9a3f ea7c 883f
00000110: 8abf df3f e9cc 3d3f 4702 7b3f 4a9b 8a3f
00000120: 9fb2 ff3c 8c3d fa3f fecb 993e d8a2 5f3f
00000130: 01b8 663f 7c61 883e b2b9 263f 56d1 933f
00000140: d1eb a03f ac32 283f d82f 983d 174c 163f
00000150: d538 b13f 196a fd3e b1f7 1d3f 1d86 c23f
00000160: 7659 123f eb83 4a3f 0080 983f 268a 7f3f
00000170: 1c49 ea3d 3e7a de3e 6cce 003f 8203 863f
00000180: 9c17 573f 6d81 953e e421 c43f 8d00 bb3f
00000190: feb2 443e cdec 653f ac56 db3d 563c 4e3f
000001a0: 8d3b bf3f 1e23 e63e 9e62 bd3e 7232 933d
000001b0: 22d8 a33e db29 8d3f dcb7 60bd 75e5 983f
000001c0: efd4 673c f104 8c3f 0044 67be 6c97 a33e
000001d0: 6055 683f f4d2 3f3e e5f9 8e3f 7cea 303f
000001e0: d86b c73f 3d2f b83f 4f7d a53f 270d 393f
000001f0: 081d 0d40 a570 293f fcf9 a73f d21f 753f
00000200: 7c21 05bf b9e7 bbbe 7116 243f 4100 35bf
00000210: 2c24 2abe ff94 dcbd 912f 1ebe e131 ebbe
00000220: b44b f1be 8818 263f c742 0d3c d3d7 6cbe
00000230: f0af 0c3e 7ad4 2fbe 3b00 c23e 7892 0dbf
00000240: ed16 563e 8151 86be e63f 3e3e dc37 7dbe
00000250: 730a 11bf 8145 f93e eb3b 17bd c50a 133f
00000260: d698 c2be fa64 bfbd bb27 90bd 1ed1 cebe
00000270: e5bd 5c3f 67ab 523e 6cab c83e ae40 38bf
00000280: cc03 623f a139 283f 6618 efbe 95e4 563e
00000290: 946c 33bf 51e2 973d 911b 6bbf 1650 e93e
000002a0: c72d 1e3e bd98 ecbc deb2 1f3e 5bef 083e
000002b0: 8f43 febc f9da 193f 6f58 c03d f3ff 193f
000002c0: c350 84be 5126 d3be 3d82 1f3d c900 5bbe
000002d0: 1613 a6bd 25a8 093d 43d4 063f 8e6e e73d
000002e0: da44 e23e cb99 39bd da9a 493e 301b e4be
000002f0: e4c2 65be feb9 023f d582 0abe fc3f 3fbf
0.62352544 1.2703663 0.22852951 0.80995387 0.63047725 0.8353799 0.61916983 0.8420705
1.3217715 -0.12689207 1.5067539 0.8867726 0.7439054 2.0167632 0.69152063 0.72202706
0.8374749 0.63276255 1.0720677 1.0317383 1.2146444 1.4740552 0.42446333 -0.15294173
0.7102692 0.77348334 0.5359402 0.80012894 0.2304962 0.45988622 1.0958833 0.18535633
0.92923903 0.7996765 1.2402571 0.3187499 0.99584043 0.9083994 1.3852934 0.9311905
0.43499425 0.5492153 0.61674255 1.2579412 1.1787505 1.1351765 1.0956835 -0.114048615
1.6607968 1.2613268 1.0223006 0.18901098 1.5756357 1.3427442 0.9025901 1.2055606
0.09402903 0.44307667 1.3523799 0.50473285 0.27594763 1.5209485 0.1829674 1.0207196
1.6685241 0.8306397 1.2099832 1.0663121 1.7480328 0.74140793 0.9805035 1.082864
0.031213103 1.9550033 0.30038446 0.87357855 0.9012452 0.26636875 0.651271 1.1548259
1.2571965 0.6570232 0.074310005 0.58709854 1.3845469 0.4949501 0.6170607 1.5197178
0.57167757 0.7910754 1.1914062 0.9982017 0.11439726 0.43452638 0.50314975 1.046982
0.840204 0.29200307 1.5322843 1.4609543 0.19208905 0.89814454 0.10709891 0.80560815
1.4940048 0.44948667 0.369893 0.07187356 0.32000834 1.1028398 -0.054862842 1.1945025
0.014149888 1.0939008 -0.22584534 0.31951463 0.9075527 0.18732816 1.1170012 0.69107795
1.5579786 1.4389416 1.2928866 0.72285694 2.204897 0.66187507 1.3123164 0.9575168
-0.5200422 -0.36700228 0.6409674 -0.7070351 -0.16615361 -0.10770606 -0.15447833 -0.45936492
-0.4712807 0.6488118 0.008621878 -0.23129205 0.1373899 -0.17170897 0.378908 -0.5530162
0.20907183 -0.26234058 0.18579063 -0.2472834 -0.5665657 0.4868584 -0.036922377 0.5743831
-0.3800723 -0.093454316 -0.07038828 -0.4039392 0.86227256 0.20573197 0.39193285 -0.71973693
0.88287044 0.65712935 -0.46698302 0.20985635 -0.7008755 0.07416213 -0.9183894 0.45568913
0.1544715 -0.028881425 0.15595576 0.13372557 -0.031038074 0.6009975 0.09391867 0.6015617
-0.25842866 -0.4124017 0.038942564 -0.21387018 -0.08109109 0.03360762 0.52667636 0.113003835
0.44193155 -0.045312684 0.19687977 -0.44551992 -0.22437626 0.5106505 -0.13526471 -0.7470701

conv3.weight f4 [4, 128, 128]
00000000: 5b25 da3c b7d5 22be fb63 03be 06cb bc3c
00000010: 8c1d 8d3d 106d 433d 39c4 6b3e b89f f3bd
00000020: 0966 6f3d 12d0 7cbd 77c3 dc3d c02c 193d
00000030: 029e c63b 87d6 ab3e 26c2 953c 08e8 f0bd
00000040: 11f0 973e fe81 a5bd 7878 3dbe e7de c33d
00000050: 8ea4 3abe 197f b9be 51b4 dabd 43fd f7bd
00000060: 671b e4bd 1208 973d 94af 51be 69b7 4cbd
00000070: eb5d df3c 983c c83c 18ed be3d 7bae 20bd
00000080: b53a 053d 8858 a33d 8785 afbe 5c81 b23c
00000090: 60a5 fbbd a95d 3c3c 329a 4ebd aca1 913d
000000a0: ed7a 33be ccd9 563b f04c 163e 4148 96be
000000b0: 87a4 9c3e cc37 173e cbd3 67bd db18 c33c
000000c0: a26d 0b3e 318d 1f3e 973a 233e 968c 6d3d
000000d0: 652b 10be 15a4 6cbe 59de f6bd a75c be3c
000000e0: 879c ad3e 8fe7 c33d d0e9 033d c88d 3c3d
000000f0: dc57 9ebc a12a b83d 871b 04be e1c3 a1bc
00000100: 13a7 a73e 4f30 633e 268e 4d3d a6b0 963e
00000110: 4b6f 59be 2a78 a43e 9c43 983d ff9e 003d
00000120: af96 a9bd e040 953c 08c5 283d 0728 843d
00000130: 64f6 333e 0a83 ea3c 4275 0d3e fd57 3d3e
00000140: c4b3 32bd ff43 0e3c 2314 fb3c e270 17bc
00000150: 7a77 06bf 7bfa babe c6f5 4a3e 6242 06be
00000160: aaf2 463e d2e6 103e fb37 2e3e a126 87be
00000170: aa4a 03bf 4a3a debd 31f8 52be ac8e c13d
00000180: 1ebb b83d ef0e e53b ed95 47bc d368 3b3d
00000190: e2d1 d4bc 1163 04be 1fc5 013e cbe2 61bd
000001a0: 6b3b 9e3e d92c fe3c 2eec 473d 9daa 95bd
000001b0: e293 d63c 961c 6ebe 3b6c 45bd f291 2fbc
000001c0: 2ca7 87bb 6287 423e 4aca 853d 98f7 073e
000001d0: c0c6 4ebe e8f8 363e 2d97 a7be 65bd d63d
000001e0: 106a 883e 4dfc 473e db3b b43c 1bbe 75be
000001f0: 7d01 38be 2670 163e 6a0f 1ebe a557 7abe
00000200: 93c3 d3bd 97ae b43d ec18 563e 7576 233e
00000210: 795e 483c d3e7 80be 46b3 1c3e 5e87 c23d
00000220: f5c7 103e 9c52 a53e 655d b53d 29f5 703d
00000230: c343 503e a18f 80bd 1540 ec3d 5f11 503e
00000240: d2ae 863e 6d31 9c3e d96f 1e3e 9caf debd
00000250: df07 16be 392b 783e 42e6 913d 9fba 48bc
00000260: ecf8 9c3d ff2d f4bd a7b3 3ebe ed83 2d3e
00000270: 4e45 41bd 01bb 5cbe 162f 88bd 01b1 ea3c
00000280: 5106 bc3b 2de7 713e 8fb0 3a3e 0eb9 abbe
00000290: a33e 5dbc dee5 07be b8ab 8cbe 4861 2c3d
000002a0: 453f a0bc 5e94 afbd 8a26 cfbd fcf6 193d
000002b0: d0e3 9ebe ebd2 253e 0b3d 8abd 318e 90bd
000002c0: 5e36 863e c807 a43d 722c 22be 90d4 8e3d
000002d0: b4cb f0bd deb7 18be b9bb 143e f11a 7cbd
000002e0: 0470 af3e 27b4 893e 798b bc3d a19d a43d
000002f0: d495 81bd f23c 0ebd aa0e 7e3d 5749 4e3d
00000300: 14cc 83be ca2c b23d a65f 283e 67e3 563e
00000310: 7a73 173d 65d7 3dbe 8837 043d 5536 4a3c
00000320: 93d3 cc3b c79e 7c3d 9ac3 c5bd b220 d53c
00000330: 047a 833e c8ed dd3d 1691 a83c 986c 3cbd
00000340: c716 45be 07e4 38be 5132 3b3e 774f 393c
00000350: a300 363d 2313 a43d 244b 77bd b57b 78be
00000360: f2f7 fe3c 38c0 163e 980f d7be 9c0e 3e3e
00000370: 46d2 14be 0be4 0d3e 9929 09be 3218 5cbe
00000380: fb07 19be 0ff0 37be 5b2c 4d3e ce25 b2bc
00000390: 4d36 913d d9be b33d 1de1 15be 2cd1 56bc
000003a0: 1cfa 1c3e 21a0 60bd 3a51 31bd c9b3 9b3c
000003b0: ae8f 63bd 7d7e 373e 913e 34be 4275 5bbd
000003c0: ae00 ecbd 737a eb3d 06c8 7d3d bd0b 673d
000003d0: 07d9 f93d eb8f 1a3c 9cb6 f3be 74ff 66be
000003e0: 517f 06bf 82ef 60be 4aac 65bd a913 80be
000003f0: 6176 bbbc 36f4 31be 101e 5b3d 8174 8ebd
0.02662914 -0.15901838 -0.12831108 0.023046028 0.06890401 0.047711432 0.23024072 -0.11895698
0.058446918 -0.06172187 0.107794695 0.037396193 0.0060613165 0.3356211 0.018281054 -0.117630064
0.29675344 -0.08081435 -0.18502986 0.095639996 -0.18226835 -0.3622978 -0.10678924 -0.12108853
-0.11138039 0.07374586 -0.20477134 -0.0499796 0.027266463 0.024442956 0.09322566 -0.039228898
0.03252669 0.0797587 -0.3428156 0.021790199 -0.12287402 0.01149694 -0.05044002 0.071109146
-0.17527361 0.0032783626 0.14677787 -0.29352 0.30594274 0.14767379 -0.056598466 0.023815563
0.1361604 0.15581204 0.15940319 0.0579954 -0.14079054 -0.23109467 -0.12054128 0.02323754
0.33908483 0.09565651 0.032205403 0.04603365 -0.019329004 0.08992506 -0.12901126 -0.019746723
0.32744655 0.22186397 0.05018439 0.29431647 -0.21233861 0.32122928 0.074347705 0.03140163
-0.08280694 0.018219411 0.04120353 0.06452947 0.1757446 0.028626937 0.13814262 0.18490596
-0.04362847 0.008683204 0.03064925 -0.009243222 -0.52526057 -0.36519226 0.19820318 -0.1311126
0.19428506 0.14150551 0.17013542 -0.2639666 -0.51285803 -0.108509615 -0.2060249 0.094510406
0.09020065 0.0069903056 -0.012181741 0.045754265 -0.025978986 -0.12928416 0.12672852 -0.055147927
0.30904707 0.031027244 0.048809223 -0.073079325 0.026193563 -0.23253092 -0.04819892 -0.010715948
-0.0041398015 0.18996957 0.06532724 0.13278043 -0.20193005 0.17868388 -0.32732525 0.10485343
0.2664342 0.19529839 0.022001198 -0.239983 -0.17969318 0.14691219 -0.15435567 -0.24447496
-0.10340037 0.08822363 0.20907944 0.15963157 0.012229555 -0.25176868 0.15302762 0.094984755
0.14138778 0.32289588 0.08855704 0.058827553 0.20338349 -0.06277395 0.1153566 0.20319127
0.26305252 0.3050646 0.15472354 -0.108733386 -0.1465144 0.24235238 0.07123996 -0.012251525
0.076646656 -0.119228356 -0.1862322 0.16944857 -0.047185235 -0.21555711 -0.06649606 0.028648855
0.0057380577 0.23623343 0.18231414 -0.33539623 -0.013503703 -0.13271281 -0.2747476 0.042084962
-0.01956142 -0.08573221 -0.101147726 0.03758906 -0.31033182 0.1619374 -0.06749924 -0.07058371
0.26213354 0.08009297 -0.15837267 0.06974137 -0.11757603 -0.1491389 0.14524736 -0.06154913
0.3426515 0.26895258 0.0920629 0.08037878 -0.063274056 -0.03472609 0.062025703 0.05036291
-0.25741637 0.08699949 0.16442737 0.20985185 0.03697536 -0.18539198 0.03227952 0.012342055
0.0062508075 0.06167486 -0.09656449 0.026016567 0.25679028 0.10836369 0.020576995 -0.046002
-0.1924697 -0.18055736 0.18280913 0.01131045 0.0444342 0.080114625 -0.060374394 -0.2426594
0.031124089 0.14721763 -0.42004085 0.1856026 -0.14533338 0.13856523 -0.13394774 -0.21493605
-0.1494445 -0.17962669 0.20036452 -0.021746542 0.07090435 0.08776636 -0.14636655 -0.013111394
0.15329784 -0.05484021 -0.043290354 0.019006627 -0.055556946 0.17919345 -0.17601992 -0.053578623
-0.11523567 0.11497965 0.061958335 0.05640768 0.12199598 0.009433727 -0.47600257 -0.22558385
-0.5253802 -0.21966365 -0.05607251 -0.25015 -0.022883596 -0.17378315 0.053495467 -0.06955815
