models/model_16_03_2020-122921.pt (torch_old, 967351 bytes, 27 tensors)

conv1.weight f4 [4, 7, 7]
00000000: 46ef f1bd cb92 263d 5f5a 44be f208 4d3e
00000010: f107 e13e 0058 b2be b451 54be 2d63 9f3d
00000020: 0414 80bd 670d 3e3e b086 07ba 5329 df3c
00000030: 003d 6cbe 436c 503e 4b25 573e 5628 a0bd
00000040: a813 533e f057 df3d 473b 34bf 353b 81bc
00000050: fd15 743f fc2d e5bd cd50 9c3d 0e79 1a3e
00000060: c2b5 16bf 0762 4e3e 5200 243f af51 24be
00000070: c34e b63e 21c1 9a3e 393e 59be ce91 c13e
00000080: b0c8 01be a3de ddbd 33d3 4e3d 5e47 80be
00000090: 7672 d9bd d0d2 713e 70c1 80be f679 a3be
000000a0: ff48 ff3c 50ee 5c3d c382 643f 0709 553f
000000b0: 8825 863f c402 af3d 851d 9d3f 5f29 95be
000000c0: 3a5d 3bbf 9563 bdbe 313d c53e ea65 ac3a
000000d0: 2a9e 133e 31f7 8f3d 47ab e1bc b57c 09be
000000e0: a0dd ce3e 5293 14be 4434 f13d a156 99be
000000f0: e9c4 b4bd 036a d03d 4b72 aabe a515 39be
00000100: 1482 50bd 724e ecbe 7d07 9abd 4103 27be
00000110: bd0d 46be ad52 b73e ea63 9e3d 67ab 1f3d
00000120: 608f bebe e33a d7be 4de8 0d3e c370 03be
00000130: a597 ef3e a30e 8ebe 6c2e a2be 7ca9 48be
00000140: deb5 ecbc 2161 e6be b2a6 843e 0d2c 1d3e
00000150: 7992 c2bd d762 91bd bc8f 153e 27df 3cbd
00000160: 2901 f93d 49b3 713e f2e1 c83d 375f e7bd
00000170: 60b5 693e fc45 553f 0013 1e3f 644b 933e
00000180: 0489 fdbe d70f 9ebd 71ac 863e deca 3a3d
00000190: ec97 833c 6256 c03c 431f c63d ec4b e23b
000001a0: 442c 44be 9041 e53c 7010 07be ac93 103d
000001b0: a6dc 3cbd 8556 b0be cd8e cfbe b787 843e
000001c0: 0ee4 a63d 68e0 90be 8df3 a93d 25b4 033e
000001d0: dfa7 f6bd 12af e4bd fc7b 9f3e 6e20 f9bd
000001e0: 229d 78be 4225 4abb 7cba 0ebf a4ca abbe
000001f0: 15e8 003f 5740 9b3e 2287 d6be 9f5a f6be
00000200: 3b4e 133f 950a 1ebd af92 a9be 1e61 25be
00000210: 5df7 afbe 7d72 36bc f324 6a3e f6a9 89be
00000220: 065f 013f 520a 1e3e 6d0a 8a3e fc26 f2be
00000230: 8fec 8cbe d035 783e 13cc c43e 2a8e c2be
00000240: 57d9 a9be c106 853e 5b29 3a3f 5bdf c9be
00000250: 769e f6bd 68f6 19bd 6f3c a13d 4b15 163e
00000260: 70c6 d7be 0fb4 013e c46a 033d 9eae 0f3e
00000270: 6cae e8bd 37ec 11be 2515 d6bd 90fe 123b
00000280: 84c1 ccbe b1ca bebe a085 df3d 721f 633c
00000290: a1b3 173e 72c5 c03c 02d4 eebe 4aa6 72be
000002a0: a2d0 94be 7afe 87be c3a8 c3be 3690 b23d
000002b0: f555 253e 7492 6cbe 7bff 31bd cbfb d43d
000002c0: e539 a13d 9d24 073f 93ce 923e a9d6 80be
000002d0: 82cd 6bbd f13e 08be 8466 70be 5c8a 923e
000002e0: d640 30be c0ae 743b 3117 5b3b 93f6 bbbd
000002f0: 95cb e6bd cc8d 0b3e e28b 04bf 2939 ea3d
00000300: a755 943e a45a 0fbf 21d0 b93e c657 b1be
-0.11813216 0.040667336 -0.19175099 0.20022944 0.4395137 -0.34832764 -0.20734292 0.07782588
-0.06253818 0.185598 -0.00051699113 0.027241385 -0.23070145 0.20353799 0.2101032 -0.078201935
0.20612967 0.109054446 -0.7040295 -0.015775302 0.9534605 -0.111904114 0.07632599 0.15085241
-0.5887109 0.20154582 0.6406299 -0.16046785 0.35606965 0.3022547 -0.21215142 0.37806553
-0.12674212 -0.1083348 0.050494384 -0.2505445 -0.10617535 0.23615575 -0.2514758 -0.31928986
0.031162737 0.05393821 0.89262027 0.832169 1.0480204 0.085454494 1.2274634 -0.29133126
-0.7318913 -0.36990038 0.38523248 0.0013152931 0.14415804 0.0702957 -0.027547492 -0.13426478
0.4040346 -0.14509323 0.11777547 -0.29948905 -0.0882662 0.1017647 -0.33290324 -0.18074663
-0.050905302 -0.461536 -0.075209595 -0.16309835 -0.19341178 0.35805264 0.07733901 0.03898182
-0.3721876 -0.42037115 0.13858147 -0.12835984 0.46795383 -0.27745542 -0.31676042 -0.19595903
-0.028895315 -0.44995978 0.25908428 0.15348835 -0.09500594 -0.0709893 0.14605612 -0.046111252
0.121584244 0.23603548 0.09808721 -0.11297458 0.22823095 0.8330991 0.6174774 0.28768456
-0.49518597 -0.07717865 0.26303437 0.045603625 0.016063653 0.02347869 0.096739314 0.0069060232
-0.19157511 0.027985364 -0.13189864 0.03529708 -0.046108864 -0.3444101 -0.40538636 0.25884792
0.08148967 -0.28296208 0.08298407 0.12861688 -0.120437376 -0.111662045 0.3114928 -0.121643886
-0.24278691 -0.0030844961 -0.557533 -0.3355304 0.5035413 0.30322525 -0.41899973 -0.48116013
0.57541245 -0.03858431 -0.33119723 -0.16150329 -0.3436841 -0.011135695 0.22865658 -0.26887482
0.5053562 0.15433624 0.2696108 -0.47295368 -0.2752423 0.24239278 0.38436946 -0.37999088
-0.3317363 0.25981715 0.72719353 -0.3942822 -0.12041943 -0.037588507 0.07872855 0.1465656
-0.42143583 0.12666343 0.03208424 0.14031455 -0.11361393 -0.14250265 -0.10453252 0.0022429563
-0.3999139 -0.37264016 0.10914159 0.013862478 0.14814617 0.02353165 -0.46646124 -0.23696247
-0.29065424 -0.26561338 -0.38214692 0.08718912 0.16146071 -0.23102742 -0.043456536 0.10399588
0.07872371 0.5279024 0.2867323 -0.25163773 -0.057569034 -0.1330526 -0.23476607 0.28621185
-0.17212233 0.0037335604 0.0033430571 -0.0917789 -0.11269299 0.1362831 -0.51775944 0.11436684
0.28971598 -0.5599768 0.36291602 -0.34637278

conv1.rnn.weight_ih f4 [21, 7]
00000000: 767f e33e bd95 5ebe 2b34 1e3e 5498 6dbe
00000010: e656 873e 8877 563e 16fb 913f c708 483f
00000020: 9ac6 19be ed4a acbc 3145 c53d 1189 503e
00000030: 517a d8be 3acb 2e3f a5e5 543e 99b3 e73e
00000040: 6c4d 513e 694a 4a3e 8f82 913e 4caf 61bf
00000050: 738c 20bf 529d ec3c eebe 66be c726 0b3f
00000060: 1d00 e2be 3ede 3dbe 7927 19bf 3a57 9b3e
00000070: 218e 0f3f 00e9 cebd 44b8 bc3d 7132 76be
00000080: 5e0e 84be 56eb dc3e a398 943f dc43 e43b
00000090: 789f 12bf bad7 23be 37f9 b8be 8624 fb3e
000000a0: f5cf 3bbf 426e efbe f81d ee3d 79af d63e
000000b0: 04a9 b33d 467e 3abe 43fc 78be 739b df3e
000000c0: 7815 ad3e 42a9 1fbc 1be4 b6bb 7d2d 3dbe
000000d0: 30af 1a3e ac58 79be 9958 443d b4c3 c83d
000000e0: bdc4 383e 123c 003e 8fb1 5cbe 34ea 2c3d
000000f0: 7e28 f73d 5b00 233f 8f57 d3bd 219a 8ebd
00000100: ab41 703c 0634 11be e982 9e3d ae8b 993d
00000110: f3a1 8cbe 016f 403e d9a9 52bd 5cdf d73d
00000120: 502c 143e ff8f ad3d eb3e 0c3e 6197 1cbd
00000130: 0e49 2d3d 5425 623e 953d 443d 7ec7 553e
00000140: ddf6 b83e 3b06 f33d 77a9 40bd 8a1d 13be
00000150: 831a 41be fe3d acbd ee32 91bc cd92 0bbe
00000160: 32b6 d73d 9ee6 6bbc 6ed3 43be 16bc 2ebd
00000170: e0b9 06bc 2e78 4fbd aea7 383c 0cde c3bd
00000180: abd2 8d3d bc26 333d 78a9 9b3e 7189 123d
00000190: b5cb 9cbe d5b3 013f 6be5 38be a62c 693e
000001a0: 79e0 613e f00e d3be 9a0a b9bd 8ab8 023e
000001b0: c8ac b9bd a456 a93d a099 a8be 0a47 043e
000001c0: 409f fa3d 7b7f 553c 9ab9 98bc 5ef7 c0bc
000001d0: abe7 643e 8982 ab3e 520b 94be 309c 2fbe
000001e0: 2713 19bd 8f69 923e aac9 a73e 8c46 2dbe
000001f0: 0f6a a93d 2545 5abe f9b1 743e 029c 17bb
00000200: aa57 18bf c7fa 0d3f 1ef0 e93d 71a9 35be
00000210: de63 6abe afc9 023e 5db3 eabd 8dad f73e
00000220: 154a aabe e3ed 523e 9870 d0bd 3496 c53e
00000230: 352f a9bd f901 413e 8663 17be ddad 033e
00000240: 29d1 df3e 493c a7bd 0340 1ebc
0.44433182 -0.21736808 0.15449588 -0.2320264 0.26433486 0.20944035 1.140475 0.78138393
-0.15017167 -0.021031821 0.09632338 0.20364787 -0.4228082 0.6827885 0.20790727 0.4525421
0.2043969 0.19754948 0.2841992 -0.88158107 -0.6271431 0.02888361 -0.22533771 0.54356045
-0.4414071 -0.1854181 -0.59825855 0.30339986 0.56076247 -0.10103035 0.092148334 -0.2404268
-0.2579221 0.43148297 1.1609081 0.0069660973 -0.5727458 -0.16000262 -0.36127636 0.49051303
-0.7336419 -0.46763808 0.1162681 0.4193075 0.087724715 -0.18212232 -0.2431498 0.43673286
0.33805442 -0.009744944 -0.0055813915 -0.18474384 0.15105891 -0.24350232 0.047936056 0.098029524
0.180438 0.12522915 -0.21552108 0.04221554 0.1206827 0.6367242 -0.10319435 -0.069629915
0.014664094 -0.14180002 0.07739813 0.07497345 -0.27467307 0.18792345 -0.05143151 0.10540649
0.14470029 0.08474731 0.13695876 -0.038230304 0.042306 0.22084552 0.04791029 0.20876881
0.36125842 0.11866423 -0.047036614 -0.14366737 -0.1885777 -0.084102616 -0.01772448 -0.13630219
0.10532798 -0.014398245 -0.19123623 -0.04265984 -0.008223027 -0.05065172 0.011270447 -0.095638365
0.06924947 0.04373811 0.30402732 0.035775606 -0.30624166 0.50665027 -0.18056266 0.22770938
0.22058286 -0.41222334 -0.09035225 0.12765709 -0.090661585 0.082684785 -0.32929707 0.12917724
0.12237406 0.013030882 -0.01864319 -0.023555454 0.22354 0.33498028 -0.28914887 -0.17149425
-0.03737178 0.2859616 0.32771045 -0.16921443 0.08272182 -0.21315439 0.23896016 -0.002313376
-0.59508765 0.5546078 0.11422752 -0.17740418 -0.22889659 0.12772249 -0.11459992 0.48374596
-0.33259645 0.20598559 -0.101777256 0.38591158 -0.08260957 0.18848409 -0.14784059 0.12859292
0.43714264 -0.08165795 -0.009658816

conv1.rnn.weight_hh f4 [21, 7]
00000000: 37c1 c6bf 1679 e6bd 20c8 7ebe de16 713e
00000010: ee9c e03e 9dfa a5be e274 3cbf 30d0 853d
00000020: 9c52 373c b89b fcbe b80e 4cbe 0352 203e
00000030: 8b8b 0ebf a570 e63e 06b6 083f 9e06 623e
00000040: c0d4 3ebf aba0 71bd 5cca 153e ee1d 133f
00000050: f565 38bf 51ad 883c 97a7 5ebf 8b83 9bbe
00000060: 2f33 3ebf f9ed fa3c d50e 80be 395c 38bf
00000070: 3d86 45be e087 8abd 8969 fbbe 2a90 af3d
00000080: 7b61 17be ef69 4ebe e919 043f b544 2fbf
00000090: 6782 55bd f768 4b3f 6681 a33e fad4 dc3e
000000a0: 535e d1be 2978 3dbf c6d0 bdbe 0c21 183f
000000b0: b050 5cbe d4c7 dabe 8caf 31bf 3a02 093f
000000c0: 1b7c d9be e4ae fabe 184a e93e a63e 2d3f
000000d0: d5f8 b03e 03c7 1c3f 3104 633d 5136 3fbf
000000e0: d616 a4bd ab2d 04bf 2103 c43e b454 a73e
000000f0: 15c1 70be 4726 8abc 636f 553f fa3b 2cbd
00000100: 3246 c23e 1c33 ff3e a802 3fbf 17b6 b63d
00000110: d695 ec3d e7f3 55be 25d4 31bd ae22 2c3e
00000120: c8ea 3abe ebb7 81be 5cd1 9cbe a9fd 67bc
00000130: f52b a63e 8302 f73d 50ba c33e a0a5 e1bd
00000140: a8ee 603e 9283 38be 88c1 073e 7ee6 b5bc
00000150: df39 6d3d a67c 11be 752d 7cbe f888 fd3d
00000160: 7ee8 ab3e b618 b03e 5a91 02bf 229a c7bc
00000170: 30c3 d03e 953a 263f e44d 3a3c 4a7f b83e
00000180: 7088 a33e ea88 a13e 0b26 2dbd 918c 40be
00000190: e8f2 b5be 9c19 0f3f ad1a e33d 60da bfbd
000001a0: e397 33bf 3fec 043f 0828 c83e be7f afbe
000001b0: 5429 a63e c410 aa3e 94d1 90be 9775 3d3e
000001c0: a0e3 60be 93c9 9c3e d61a a73e a10c cb3e
000001d0: 205c a7bd 3df8 bd3e 41ba 3cbe 9b1b 573e
000001e0: 5aa7 87be 18fe ca3d f11b 493f 0b8b dcbc
000001f0: 7f3e 613e 65b2 babe e7f4 e13e 45db 19bf
00000200: dae3 80bd 4606 33bf 5915 bfbd 1d9a ccbd
00000210: 460f f3be 00b2 383c 494f 4a3e 9d15 623d
00000220: e742 563f 68b2 a8be 803a 293f dea7 3abf
00000230: 8889 7fbe ac00 29bf 568b 963e a12c 40be
00000240: de68 0d3f d9b7 283e d948 263f
-1.5527714 -0.11253564 -0.24881029 0.2354388 0.43869728 -0.32417765 -0.7361585 0.06533849
0.011189129 -0.49337554 -0.1992749 0.15656285 -0.55681676 0.45007816 0.53402746 0.22072837
-0.7454338 -0.058991116 0.14627975 0.57467544 -0.72030574 0.016684206 -0.8697447 -0.30373797
-0.7429685 0.030631052 -0.25011316 -0.7201572 -0.19289489 -0.06764197 -0.49103954 0.08572419
-0.1478328 -0.20157598 0.51602036 -0.68464214 -0.052126314 0.7945704 0.3193466 0.43131238
-0.40892276 -0.74011475 -0.37073344 0.59425426 -0.21515155 -0.42730582 -0.6940849 0.5351902
-0.42477497 -0.48961556 0.45564342 0.6767372 0.34564844 0.6124117 0.05542392 -0.74692255
-0.08012168 -0.51632184 0.38283637 0.3268181 -0.23511155 -0.016863955 0.8337309 -0.042049386
0.3794418 0.4984368 -0.7461343 0.0892145 0.115520164 -0.20893823 -0.043415207 0.16810104
-0.18253624 -0.2533563 -0.3062848 -0.014159598 0.32455412 0.12061026 0.38228083 -0.110179186
0.2196604 -0.1801894 0.1325742 -0.022204634 0.05791652 -0.14207706 -0.24626715 0.1237964
0.33575815 0.34393853 -0.5100304 -0.024365488 0.40773916 0.6493314 0.01137111 0.36034614
0.3194003 0.3154977 -0.04227261 -0.18803622 -0.35536885 0.5589845 0.110890724 -0.093678236
-0.70153636 0.5192298 0.3909304 -0.34277147 0.32453406 0.33215916 -0.28284895 0.18501888
-0.21961832 0.3062254 0.32637662 0.39658073 -0.08171868 0.37103453 -0.18430425 0.21006624
-0.26494867 0.09911746 0.7855826 -0.02692177 0.21996497 -0.3646423 0.44132158 -0.60100204
-0.06293459 -0.6993145 -0.093302436 -0.09990332 -0.4747259 0.011272907 0.19756807 0.055196393
0.83695835 -0.32948613 0.6610489 -0.72912395 -0.24954808 -0.6601665 0.2940318 -0.18767025
0.5523814 0.16476382 0.64954907

conv1.rnn.bias_ih f4 [21]
00000000: 2df0 60bf d414 2ebe 1ad3 213e ea17 dfbe
00000010: 01ca b23e 7da8 2a3f 7ede 013f 8a23 463f
00000020: 3227 d43e 6464 103f 8d49 dd3e a064 723e
00000030: a29c 44be f56a 973e 2b31 333d f0c5 f13d
00000040: b4ce f03e 4b18 af3e 1dd8 9e3d 5c02 0a3f
00000050: 2754 943e
-0.8786648 -0.17000133 0.15803185 -0.43572932 0.34919742 0.6666334 0.5073012 0.7739798
0.41436154 0.56403184 0.43220177 0.23671198 -0.19200376 0.2957379 0.043748062 0.11805332
0.47032702 0.34198222 0.07756064 0.5390985 0.28970453

conv1.rnn.bias_hh f4 [21]
00000000: 9536 93be 235c ecbe e9fb dfbe 6dbe 22bf
00000010: e257 333e 9ab5 d33e 4ef9 b73c 77ef 863e
00000020: 9a1d 7b3e 6c22 073f 8421 3b3f 5379 033d
00000030: e92d 193d 8475 ff3e dd5b f5bd 1801 abbe
00000040: 7cd2 e5be c702 bfbe 82a2 c63d 8f24 983e
00000050: 0de5 eabd
-0.2875258 -0.46164045 -0.4374688 -0.63571817 0.17513993 0.41349488 0.022457745 0.26354572
0.24523011 0.527869 0.73098016 0.032098126 0.0373973 0.49894345 -0.11980412 -0.33399272
-0.4488715 -0.37306806 0.09698965 0.29715392 -0.11469469

conv2.weight f4 [4, 64, 64]
00000000: d7ab 8d3d 702f d5bd 26b3 92bd 175c a6bc
00000010: cec6 06be 639d ac3d 0aff 22bd 1e62 0fbd
00000020: d015 cfbd e009 3a3e 9388 b73d f05b d8bd
00000030: 1eaf a23d ef97 a8bc cd93 22bd 66f4 4c3d
00000040: 824e 42bd cca7 8abd 9cc0 7f3d 036b 80bd
00000050: b326 55be 9cca 283d 0e40 3b3e 5666 76be
00000060: 0b7f 1b3d 0409 e23c c6ce 53be 1ee3 6b3d
00000070: aadb 1abd f84e 89bd 5f79 123e 480c b0bc
00000080: fcdc 5dbb fa1a 06bd badf 78be 17a0 b03d
00000090: ee7a 8cbe 851e 733c fe86 b23c 02b6 c9be
000000a0: 897f 20bd 25da 23be b097 373e e475 1d3d
000000b0: be2c bebd de40 343e 6351 a03c 1afa b03d
000000c0: b3c0 163d e9c7 893d c9b2 9fbc 9f3f 1fbc
000000d0: 21c0 013d 3a0a 19be f04a 333d 0014 babd
000000e0: e0d0 303d 4c74 36bc f333 513d e96c b5bc
000000f0: d838 a4bd d22d bd3d d255 633c f729 aabd
00000100: 351c 303d 5b1e b1bd f966 523d ff04 423c
00000110: 28ed 67be a5bf 73bd 60c2 3a3e 2345 d9b8
00000120: edda 95bd 78fa 913d 7692 b63c dd90 d73d
00000130: f559 e8be 1b3a 1dba 7943 a83d e2b9 c83b
00000140: b034 9f3e 7900 993c dce6 eb3d 8f8b 03bd
00000150: 52df 5a3c 5abf 223c e8bd 7b3d 95f1 253c
00000160: 8e91 18bd 8ba2 a93c 1642 f83d 6ef6 dbbc
00000170: d61f c7bd 2b35 023d e1a9 dd3d c0c3 1d3c
00000180: 08c0 99be 2687 ee3c bff0 eb3e afd7 7b3e
00000190: 341f c7bd 4326 51bc 5329 df3d 41a8 0d3e
000001a0: d4ed 62bd 1862 043d 292e 293d 2e67 c3bc
000001b0: 8562 013d f74e 3c3e f0ae b2bd 1cea 7bbc
000001c0: 646c 973d 7c08 12be 376e 73bd 4d8e 0abe
000001d0: f406 83bd 096e 533d 3fbd 15bd 1cee d73d
000001e0: 56bb 953d 3dd7 2cbc 3d00 38bd b6ca 183d
000001f0: 5d1d 283e 8ccb 3ebd 468c e0bc d638 0c3d
00000200: 47c2 543d 3a62 87bc d164 3b3d ee4a adba
00000210: 9b77 473d fc3f ae3d 583f 8e3e 1f18 6e3d
00000220: 6fe9 31be a465 abbd 5f0b 92bb 136f c53c
00000230: 0a02 0f3d dbb9 d0bc e329 40ba 8860 373e
00000240: 86f7 f2bd 2475 c3bc 7de2 d93d 81d3 e63c
00000250: ec27 443e cb6e 0ebd e77e 85be 5817 483e
00000260: 49bf 85bc cc8d 353d d342 c4be 2ad8 e43b
00000270: 3629 e13d 8cc1 753e bb9a cdbe 48de 0fbc
00000280: 4637 62bd 30dd 1bbe e7ec 1abd cff8 943e
00000290: a202 833e 7cd8 bfbb 285d 36be 0c77 ccbd
000002a0: a8e8 063d e991 6ebd 4c14 a93c c6ec 103d
000002b0: 5f28 b73d 704a 58be 7f7e 143c 7686 92bd
000002c0: 3157 8fbd d268 8abd 5f6b 8dbd 7d49 aa3d
000002d0: f84d b93b 70da c0bc 7aab 373d 0bec f33c
000002e0: 26e5 173e a358 a73d 209e 9fbd 73c3 d03b
000002f0: d7cb a8bd 617d fbbd 14d1 1bbc 7872 72bd
00000300: 139c 033d 4a6f dc3c dab0 653b ca74 133d
00000310: 3587 e4bb fbc2 243d 4088 103e 97f3 293d
00000320: ed69 8fbd b3f2 a8be a1bd f7ba f04a fdbc
00000330: 52c3 96bc e3f0 f5bc 56c5 933c ab23 bfbc
00000340: b8a3 263e 996b 46bd 38cd 043d 701f 78bd
00000350: e96c 7ebd 6ee9 ab3b f240 143e 4dc2 74be
00000360: 548a 2d3d 910b 393d 18c1 e6b9 64a9 613d
00000370: b377 60be 59ac 243e b0a9 613e 2b5e 793d
00000380: f52d 763e 19b2 d1bd dbe7 a73d 0419 d1bd
00000390: 1648 d2bd 5ae3 3e3d 1c3b f9bd 1dde 093e
000003a0: 0336 04be 4b6c 2f3d 9679 42bb b99c ecbd
000003b0: 83fb 763d 2a58 b6bc 6f7e 8f3d 39d2 cabb
000003c0: 30c5 fc3d e2c4 30be ec47 8fbc cf5f 623d
000003d0: 596f 343e ba53 6a3d 538e 5f3d ccb1 543d
000003e0: 18ae 2e3e 0090 ca3c 6443 2bbe 3ab1 94bc
000003f0: 3233 093e af2c 123e 2ca9 0bbd 1a0a 5a3c
0.069175415 -0.104094386 -0.07163076 -0.020307584 -0.13161775 0.08428457 -0.039794005 -0.03500568
-0.10111582 0.1816783 0.08961596 -0.10564411 0.07943557 -0.02058026 -0.039691735 0.050037764
-0.047438152 -0.06770286 0.062439546 -0.06270411 -0.20815544 0.04120885 0.18286154 -0.24062476
0.037962954 0.02759219 -0.20684347 0.057589643 -0.037807144 -0.06704515 0.14304112 -0.021490231
-0.003385364 -0.03274057 -0.24304095 0.08624285 -0.27437538 0.014838819 0.021792885 -0.39396673
-0.039184127 -0.16001184 0.17928958 0.038442507 -0.09285878 0.1760287 0.019570058 0.08641453
0.036804866 0.06727583 -0.019494431 -0.009719758 0.03167737 -0.14945307 0.043772638 -0.09085846
0.04316795 -0.011136126 0.051074933 -0.022146659 -0.080186546 0.09237255 0.013875442 -0.083087854
0.04299565 -0.08648368 0.051367734 0.0118420115 -0.22649062 -0.05950894 0.1823821 -0.00010360244
-0.073171474 0.07127851 0.022286635 0.10525677 -0.45381132 -0.0005997733 0.082159944 0.0061256746
0.31094885 0.018676983 0.11518642 -0.032115515 0.013358908 0.009933317 0.061460406 0.010128398
-0.037248187 0.02070739 0.1212198 -0.026850905 -0.09722869 0.031788986 0.108234175 0.00962919
-0.3002932 0.029117178 0.46082112 0.24593996 -0.097227484 -0.01276547 0.10896554 0.13833715
-0.05540259 0.032320112 0.041303787 -0.02385291 0.031588096 0.18389498 -0.08724773 -0.01537564
0.07393721 -0.14261049 -0.05943128 -0.13530846 -0.063978106 0.05161861 -0.036557432 0.10543463
0.07311122 -0.010549364 -0.044922102 0.037302695 0.16417451 -0.046580836 -0.027410638 0.03423389
0.05194309 -0.01652633 0.045750443 -0.0013221183 0.04869805 0.08508298 0.27782702 0.058128472
-0.17374204 -0.08368996 -0.004456922 0.024100816 0.034914054 -0.025479248 -0.00073304604 0.17907917
-0.118636176 -0.023859568 0.10638902 0.028177025 0.19155854 -0.03477363 -0.2607338 0.19540155
-0.016326563 0.04432468 -0.38332233 0.0069837766 0.109941885 0.23999614 -0.40157112 -0.008781023
-0.055228494 -0.15221095 -0.037823584 0.29096076 0.25587946 -0.0058546644 -0.17808974 -0.09983644
0.032936722 -0.05824462 0.020639561 0.035382055 0.08943247 -0.21122146 0.009063362 -0.07154553
-0.06999052 -0.06758274 -0.06905245 0.08314798 0.0056550466 -0.02354166 0.044841267 0.02977564
0.14833507 0.08171203 -0.07793832 0.0063709556 -0.08242004 -0.122797735 -0.009510297 -0.059191197
0.032131266 0.026908536 0.0035048039 0.03600005 -0.0069741257 0.04022501 0.14114475 0.04149207
-0.070026256 -0.32997665 -0.0018901118 -0.030919522 -0.018403683 -0.03002209 0.018038433 -0.023332438
0.16273391 -0.048442457 0.032422274 -0.060576856 -0.062115584 0.005246333 0.144779 -0.23902245
0.042368248 0.045177046 -0.00044012885 0.055093184 -0.21920662 0.1608137 0.22037387 0.06088082
0.24040969 -0.102390476 0.0819852 -0.102098495 -0.102676556 0.046603538 -0.12169477 0.13463636
-0.12911229 0.042827886 -0.0029674522 -0.1155333 0.060298454 -0.022258837 0.07006537 -0.0061896113
0.12342298 -0.17262605 -0.01749035 0.05526715 0.17620601 0.057208754 0.05457909 0.051927373
0.17058599 0.024726868 -0.16724926 -0.018150914 0.13398436 0.14274858 -0.03409688 0.013308072

conv2.rnn.weight_ih f4 [192, 64]
00000000: e6b6 453e 02a8 223e cbe0 b33e 41c5 77be
00000010: 910c 52bf 3640 9f3e 69b2 0abe 391c 66be
00000020: 0de9 3c3d a2d6 f53e 9674 94bd e341 8a3e
00000030: b2b7 2cbe f8be 23bf 791c b23e 3b32 9f3e
00000040: a321 cf3d 11d9 1a3d 21d5 5c3e eb44 a2bc
00000050: 4c3d dcbe b84a 1a3f 02e8 493e 0ee4 e03d
00000060: 3005 fdbd 1def eebe ec38 76be 8bdd d73c
00000070: d0a0 afbe c156 ddbb 2717 233f 7209 443d
00000080: 1c3e 7dbe 6fe5 363e 4b79 003d dbed bc3e
00000090: d054 8a3e d7b1 e8be 772a 6bbe 62f4 5cbe
000000a0: 0c11 0cbf bd3f 44bf 0473 be3d 9ec2 0d3d
000000b0: a587 7dbe 62a8 273f 893f e5bd 08c3 0abc
000000c0: a2d4 ce3e b742 f6be f509 20bd 403c 473c
000000d0: af43 15be eb75 79be cd17 be3d b2e5 a6be
000000e0: 5b42 4abe 250b 223f b831 433e 5dc1 62bd
000000f0: ff39 3dbe 0d32 8d3e 710b 503e 54d8 2bbf
00000100: d1ae 02be ecfd 34bf a933 57be fc72 6bbf
00000110: 7512 753e 3eda 01bf 2ee0 c3be 0071 babc
00000120: f406 003f 3e43 65be effc 823e 3e0c 3bbf
00000130: aec1 8dbe 1d65 443f 3524 fb3e 5a50 c0be
00000140: 1f9a ac3d d628 eebd 522c 583e 725b c2be
00000150: 1f8a b5be 47eb 103e ff7d ce3d c128 133d
00000160: 0c01 ea3d 7c21 e63e de3c 2c3e c039 91be
00000170: 043e 83be 2542 2fbe 618a 5cbe 4858 1abd
00000180: c460 fcbd e611 373d 5215 95be 8437 bebd
00000190: 8536 babe e118 12bf 8c9f 0ebf 8042 fa3e
000001a0: 1b8a 06be ee0a c63d 8dc7 90be 9eef f2be
000001b0: eaa7 13bf 4615 153f 6b9c 22bf 4215 b3be
000001c0: 09f6 febd be49 b23e 4640 1f3f fbbf d2be
000001d0: 1e20 463e 7f1a 9fbe 9064 d2bb d287 48bf
000001e0: d029 95be 3ed1 ee3d d8b1 b6bd a7f6 243d
000001f0: 9cc0 b63e 6262 b4bd 4b21 44bd c2a8 9fbe
00000200: f369 893e 4814 53bd 757b 0d3f 9cd6 62be
00000210: 5904 bcbe 9edf 23be d8f3 fd3e f3c4 253e
00000220: 8f10 65bd 16f5 9abd 0ae6 22bf 8513 4a3f
00000230: 9f84 d1be 06fc 723d 3b0d 913d 06bd 293f
00000240: 230f 02bf 2d50 24bf aa53 173e 95be 673e
00000250: 393e 063f e7ca 673d 3839 ecbe ae41 c23e
00000260: 4a51 46bd c0c4 293e 2946 a9be 15a4 953e
00000270: 927d a0be ceab 023e 017c 39bf a736 073e
00000280: edb9 49bd 4d2e 99bd d389 f23e d57f 023e
00000290: fb9e 953d 7263 873e cecf 99bd ca67 583d
000002a0: 7433 3abf fe15 53be ed36 03bf 28c3 60be
000002b0: 337e 873d 6297 e9be 7cfd a33e df54 debe
000002c0: 7285 7cbe 45e9 89be ea6a e6be 2bbb 863d
000002d0: f05e ff3d afc2 37be 3e76 203d 98bb 023e
000002e0: 95c3 183e add8 793d 96f3 463b fa0b 12bf
000002f0: 0abd 87bf 9c32 59be dc29 82be 56e6 d53e
00000300: cb4e 123d c379 003e 90f5 cabe 115b 8bbe
00000310: d0ce 533d f176 acbe 44ea d1be 90e0 d6be
00000320: 6b13 723e 373f 6d3e 33dd 6b3e d45e 613e
00000330: 5048 643a d616 fd3e 8ec7 09bf 6b5b e83c
00000340: eae8 3e3e 0b2d b83e 65d1 fcbe 7e84 f83e
00000350: 2074 203f acb7 6abf c38d 423d 1365 c8bd
00000360: 1c9d bebe 2071 a3be c613 2dbc d2fe 08bf
00000370: f95d b03b b2da 293e 8dd8 113c c019 b6be
00000380: 89ea 81be 49b4 143e 73b1 a33d 09e4 b6be
00000390: 6efd 18be 001a 723e 8f7f 293b 3d4d 003d
000003a0: 5321 95be 1e80 223f aa2f 293e df7b 163f
000003b0: b564 f83e 0ccf c83c 3110 8e3b fa61 213d
000003c0: 0e2c 39be b667 2f3f 46f7 7ebe 8fd2 8c3d
000003d0: 2f24 eebe d489 d7bd 1cb3 2fbe 6d9f 473e
000003e0: 2c65 743e bd9a 36bf 617d bf3e e338 193e
000003f0: 7a2d 26be 1d90 703e 6ab3 003f fcfc 903e
0.19308051 0.15884402 0.3513244 -0.2419634 -0.82050425 0.31103677 -0.1354462 -0.22471704
0.046120692 0.48015314 -0.072487995 0.27003393 -0.16866949 -0.6396327 0.34787348 0.3109301
0.101138376 0.037804667 0.21565677 -0.019808253 -0.43015516 0.6027026 0.1971741 0.10980998
-0.12354505 -0.46666804 -0.24045151 0.026350757 -0.34302378 -0.0067547266 0.637072 0.04786057
-0.24730724 0.1786096 0.031365674 0.3690022 0.27017832 -0.4544818 -0.22965418 -0.215776
-0.5471351 -0.76659757 0.09299281 0.03460943 -0.24758776 0.65491307 -0.11193759 -0.008469351
0.403966 -0.48097774 -0.039071996 0.012160361 -0.145766 -0.24361388 0.092818834 -0.3259712
-0.19751875 0.63298255 0.19061935 -0.055360187 -0.18479155 0.27577248 0.20316865 -0.67126966
-0.12762 -0.70699954 -0.210158 -0.9197233 0.23932822 -0.50723636 -0.38256973 -0.02275896
0.5001061 -0.22388932 0.25583598 -0.73065555 -0.27686828 0.76716787 0.4905106 -0.37561303
0.08427834 -0.116288826 0.21110657 -0.37960392 -0.3545694 0.14152251 0.100826256 0.035927538
0.11425981 0.44947422 0.16820094 -0.28364372 -0.25633252 -0.17115076 -0.21537162 -0.037681848
-0.12323144 0.044694804 -0.2911783 -0.092879325 -0.3636972 -0.5706921 -0.557122 0.4887886
-0.1313862 0.096700534 -0.28277245 -0.47448438 -0.5767809 0.58235586 -0.63519925 -0.34977156
-0.12449271 0.34821886 0.6220745 -0.41162094 0.19348189 -0.31074902 -0.0064206794 -0.78332245
-0.29133463 0.116610035 -0.0892064 0.04027429 0.35693824 -0.088078275 -0.047883313 -0.3118344
0.26838645 -0.051533014 0.55266505 -0.2215218 -0.36722067 -0.16003272 0.496001 0.16188411
-0.055923995 -0.07566278 -0.6363226 0.78936034 -0.40921494 0.05932238 0.07082602 0.6630405
-0.50804347 -0.6418484 0.14778009 0.22631295 0.52438694 0.056589987 -0.46137404 0.37940735
-0.048417367 0.1657896 -0.3306134 0.29226747 -0.31345803 0.12760851 -0.7245484 0.13204442
-0.04924958 -0.07479534 0.47370777 0.12744077 0.07305714 0.26443058 -0.07510339 0.052833356
-0.7273476 -0.20613858 -0.51255685 -0.21949446 0.066158675 -0.45623308 0.3202933 -0.43424127
-0.2466028 -0.26935783 -0.45003444 0.06578668 0.1246928 -0.1794536 0.039175265 0.12766874
0.14918359 0.060997654 0.003035759 -0.57049525 -1.0604565 -0.21210712 -0.2542256 0.41777295
0.035719674 0.12546448 -0.39640474 -0.27217916 0.051710904 -0.33684495 -0.40999043 -0.41968203
0.2364022 0.23168646 0.230336 0.2200883 0.0008708285 0.49431485 -0.5382012 0.028363904
0.18643537 0.35971865 -0.49378505 0.48538584 0.6267719 -0.9168651 0.047498476 -0.097849034
-0.3722924 -0.31922245 -0.010563796 -0.53513825 0.005382296 0.16587332 0.008901727 -0.3556652
-0.2537425 0.14521898 0.0799283 -0.35720852 -0.14940426 0.2364273 0.0025863384 0.03132366
-0.29126987 0.6347674 0.16522089 0.5878276 0.48514333 0.02451279 0.0043354263 0.03940008
-0.18083212 0.68517625 -0.24899015 0.06876098 -0.4651198 -0.105243355 -0.17158169 0.1949441
0.23866719 -0.7132986 0.37400344 0.14963107 -0.16228285 0.23492475 0.50273764 0.28318012

conv2.rnn.weight_hh f4 [192, 64]
00000000: 5204 913e 3509 3f3e b796 95be 1424 dbbe
00000010: a4d9 8abe 0cf5 c33e 4f05 6c3d b61e d73d
00000020: 3e7e 173f 1cc6 f6be a926 3ebd cbed 0a3e
00000030: 857b f33e ce69 163e 1194 61be 2b92 bebd
00000040: 9052 c13e 8636 f83e a0c4 ab3d 2e10 bb3e
00000050: 4ccc e5be 0867 e23e 7951 383f d95b 643f
00000060: c89d c83e 7d63 cbbe c9b0 d8be e975 6d3e
00000070: 2586 d8be 2143 64bd 1f65 93be 0738 e8be
00000080: 6315 57bf 7511 eb3d 6fb6 9cbe 9754 8cbe
00000090: 37ab b9be f95c 0ebf 7185 543e 29b7 bcbd
000000a0: b368 cf3d 77a9 603f 637b 043d d8bb a9bd
000000b0: 956c 8fbe 7a01 d8be d42f 603f da6f c63e
000000c0: 625a 77be 3341 f93e 0049 2f3d 53ea e0be
000000d0: 1fb8 ba3e fddd f8be 4045 7b3e 805b 923b
000000e0: 18f5 953e 2697 f03e d5a9 a3be 6542 ed3e
000000f0: e4c6 ef3e fd9a 3cbe b92e 903e d525 6d3e
00000100: 8974 893e c489 f13d d4cc d4be 5c2e e03d
00000110: 960f 6dbe ec4f a7be a8a7 edbd 5ac2 253e
00000120: f43f 953f a575 da3c bceb 65bd afb1 febb
00000130: df17 093f 5200 9b3e 8c8c b8be bd90 c0be
00000140: e11f 443f bc96 ae3d 6703 1cbe 8033 f53e
00000150: 66d5 85bf 3eb3 2f3e e577 5cbc 6ca6 afbe
00000160: 01e9 29bf c6ee d03d 0513 433f 51a8 71be
00000170: e9bc 293f a8e9 fbbd 4eb1 20bf ab90 923f
00000180: 9be9 753e 07c0 98bf 429e 983e 0551 99be
00000190: 74fe 543d 9f2b 05bf 261a d7bd 41eb b13e
000001a0: 390b 45bf 3b63 4dbe 0a78 f0bd 9f74 113c
000001b0: 77f6 81be 65dd 16bd c34f 11bf 312f 16bf
000001c0: 565d b33e 4ad8 b73e e9c8 b5be e3e4 cd3e
000001d0: 87e6 483f 6833 2e3f 580c c2bd d5bd 04be
000001e0: 5193 24bf 3cfe 313e 2341 f83e 8bde 513f
000001f0: c637 2f3f 7283 f33e c058 923e c9f1 413d
00000200: 3796 543f b8ee efbe 6c0a d6bd 9c15 4e3e
00000210: 6861 8c3c ef1d bf3d f5b4 6c3e db64 1fbf
00000220: 5984 3abf 92f3 79bd b96c 883e 877b 3abf
00000230: 0b90 87be 5700 e73c a960 8e3e 3975 843e
00000240: 1d79 4b3e bdfd 37ba 4249 ffbe 5b37 86bd
00000250: 34d5 0abe 834a 16bf 2e37 b13e 4173 a3be
00000260: 697c 46bd d5ca bdbe cc99 91be a804 953f
00000270: 1db8 053f 2166 82bd 4fe7 093f 39be c8be
00000280: 055f 03bf 6efa 793e 5635 a5bd b04d 16bf
00000290: 8407 3ebe 8f30 4d3f 9445 843f 4f73 eebd
000002a0: c615 acbe aca4 dd3e 8eb8 593e b0a4 ea3e
000002b0: 9cbf 613f 891e 61bf f26a 263e 1e1a 523e
000002c0: e406 99bf 4b98 a4be 5fba d83e ddd6 4dbf
000002d0: f7ad a8be ddeb c2be e0a8 31bd ed30 8dbe
000002e0: fd62 46be d5a3 c53e c2ab 733e edd6 49bf
000002f0: f391 783e 18f1 a3be b71b c1be 1dc4 f8bd
00000300: dd99 933f 6761 29bf c1ce 3dbe 68af 373c
00000310: e99b 323f c558 0cbd 75c8 683d 098c 50bf
00000320: 1a81 76bd b0ab 953c 0134 1dbe c330 263e
00000330: 5013 18bf 4730 103f 2350 6fbf 93d1 893d
00000340: 1ead f13d 9304 c13e 00d5 863e eabd 343d
00000350: beaf cb3b a4ed 2fbd 3bc6 223f c1f8 96be
00000360: df51 7e3e f879 bb3f 7a1c 66bd 6715 c83f
00000370: 61d4 c8be 0cc8 8fbe ec37 6b3d 777f 7abe
00000380: 6fd6 0ebd fb54 de3d eb27 753e b3c2 31bf
00000390: e4c9 c0be 81a1 49be 9571 0d3f 825a 853e
000003a0: f2d8 2abf 5f8a cdbd 1919 943e 5e6a 3bbe
000003b0: 2ed5 c03e 0788 70bf 7e3f 0bbd bed5 4ebe
000003c0: 6ac5 80bf 6303 323e ad1f d8be 1b43 41bd
000003d0: b5f1 0cbe a9c4 4fbf 3c8f 59bf c91e 273e
000003e0: 5882 de3e 5cae d63e 8993 623e ff42 88be
000003f0: 904f 28be 6fa8 b9be 7f7f d3be a617 16bf
0.2832361 0.18655856 -0.2921655 -0.42800963 -0.27119172 0.38272893 0.05762225 0.105039045
0.59177005 -0.4819802 -0.046423588 0.13567273 0.47555175 0.14688799 -0.22029139 -0.09305223
0.37758303 0.48479098 0.083871126 0.36535782 -0.4488243 0.44219232 0.7199932 0.8920265
0.39182878 -0.3972434 -0.42322376 0.2318951 -0.42289844 -0.05572808 -0.28788087 -0.45355245
-0.8401701 0.11477939 -0.30607936 -0.27408287 -0.3626344 -0.55610615 0.20754029 -0.092146225
0.10127392 0.8775858 0.032344233 -0.082877815 -0.2801253 -0.42188627 0.8757298 0.3875721
-0.24155572 0.48682556 0.042794228 -0.43928775 0.36468598 -0.48606864 0.24538136 0.004466474
0.29288554 0.46990317 -0.3196551 0.46339718 0.4683143 -0.18418498 0.28160647 0.23158963
0.26846722 0.11793855 -0.4156252 0.10946342 -0.23150477 -0.32678163 -0.116042435 0.1618742
1.1660142 0.026667425 -0.056133017 -0.0077726464 0.5355205 0.30273682 -0.3604473 -0.37610427
0.76611143 0.08524844 -0.15235673 0.47890854 -1.0455749 0.17158219 -0.013456319 -0.34306657
-0.6637116 0.102017924 0.76200897 -0.23599364 0.6630388 -0.12300426 -0.62770545 1.1450399
0.24014895 -1.1933602 0.2980824 -0.29944625 0.052000478 -0.52019686 -0.10503034 0.34749797
-0.7697025 -0.20057385 -0.11741646 0.008877902 -0.2538335 -0.036832232 -0.5676233 -0.5866576
0.35032147 0.35907203 -0.35504845 0.4021369 0.78476757 0.6804719 -0.09475011 -0.1296304
-0.64287287 0.17382139 0.48487195 0.819802 0.6844448 0.47561222 0.28583336 0.047349725
0.8304171 -0.46861815 -0.104512066 0.20125431 0.01713629 0.09331881 0.23115905 -0.6226327
-0.72858196 -0.061023302 0.2664545 -0.7284474 -0.26477084 0.028198404 0.2780812 0.25870684
0.1987042 -0.0007018706 -0.4986058 -0.06553527 -0.13557893 -0.58707446 0.3461241 -0.3192387
-0.04845849 -0.3706881 -0.2843765 1.1642046 0.5223406 -0.06367136 0.53868574 -0.39207628
-0.51316863 0.24411938 -0.08066814 -0.5871229 -0.18557554 0.8015222 1.0333734 -0.11643087
-0.33610362 0.43289697 0.21261808 0.45828772 0.88183 -0.8793722 0.16251734 0.20517775
-1.1955228 -0.3214744 0.4232969 -0.8040598 -0.32945225 -0.38070574 -0.043373942 -0.2757639
-0.19373699 0.38601556 0.23795989 -0.78843576 0.24274425 -0.32019877 -0.37716457 -0.12146781
1.153133 -0.6616425 -0.18535902 0.011211254 0.6976915 -0.034264345 0.056831796 -0.81463677
-0.060181715 0.018270344 -0.15351869 0.16229539 -0.5940447 0.56323665 -0.93481654 0.06729426
0.118005976 0.37698802 0.2633438 0.04412643 0.0062160185 -0.04295124 0.63583726 -0.2948666
0.24835919 1.4646597 -0.0561795 1.5631531 -0.39224532 -0.2808231 0.057426378 -0.24462686
-0.03487247 0.108560525 0.23941009 -0.6943771 -0.3765403 -0.19690515 0.5525144 0.26045614
-0.6673728 -0.10036158 0.28925398 -0.18302295 0.37662643 -0.9395756 -0.033996098 -0.20198724
-1.0060246 0.17384104 -0.42211667 -0.047183137 -0.13764079 -0.81159455 -0.84984183 0.16320337
0.4345882 0.419299 0.22126593 -0.26613614 -0.164366 -0.36261317 -0.4130821 -0.58629835

conv2.rnn.bias_ih f4 [192]
00000000: d76e af3e a26d 183f 81bd e2be fca3 8abd
00000010: 3674 793d b071 803e f3f3 2b3f 42bf f33e
00000020: bf19 cc3e 1cac 083f c020 453f 54ca 523e
00000030: bca5 9f3e 0589 7e3f c812 f53e aded 873f
00000040: 960a 293f 96a4 013f 8dc0 203e 37af 073f
00000050: 59d2 133e 14b8 bbbd 5b96 603f 3411 db3e
00000060: 7541 303f 3692 df3d 5f66 ec3e 2fcf 103f
00000070: 0de8 233f 10ea 3e3f 69bb 973e b8b9 15bd
00000080: 2c6f 3f3f 99e8 87bd 0e66 363f 44ba 1b3e
00000090: 45b3 f93e 50db 943e 3e11 213f bf11 1b3f
000000a0: cd4d 693f 7c07 db3e 8b91 db3e eb47 5c3f
000000b0: 8c2c e53e 8f50 8a3f c895 853e a359 d03e
000000c0: fe50 2b3f 9d43 6b3e 1e17 a13f ef74 963f
000000d0: 4cc5 483e 57d0 2b3f 1e00 de3e f869 2f3f
000000e0: adc0 9f3e 8deb a33f 8259 783f 08ff 2c3f
000000f0: f7bc 2c3e ba94 5a3f f137 4f3f b8b3 7a3e
00000100: 27d6 473f dd52 503f d5df 0a3f 4cb7 6c3f
00000110: 93eb 1d3f 095c a03e 231f 363f 1c01 913f
00000120: 8499 7e3f 40fe 393f da6f 783f 95b9 b83f
00000130: fb17 9d3f 90b5 353f a94e 3e3f 03ab 063f
00000140: 11eb 953f 6520 803f 3f43 a93f 7efc 3b3f
00000150: 4ef1 393f f684 543f c69c ec3e 84d2 a03f
00000160: 7608 8a3f beb8 983f 3eac 9a3f 1ef3 833f
00000170: 3fd9 653f 3b7f 7e3f c066 0e3f e834 733f
00000180: 3b80 843f bd57 763f 4ac1 7f3f 8167 8f3f
00000190: adb3 8a3f e5ce ff3e a412 623f bbd7 623f
000001a0: debf 9e3f a63b 7b3f c995 803f ac23 2c3f
000001b0: 97d1 6f3f 0419 b23e 8862 543f 7d8c 503f
000001c0: 9196 213f 8ee2 473f 82fa e83e efde 303f
000001d0: 9d03 663f db11 873f 82d5 813f 9e9b 7e3f
000001e0: 5118 743f bab8 233f a695 563f 8eaa 603f
000001f0: e31d 923f d1d7 eb3e a465 403f e4d0 333f
00000200: 2fed c4bd 2d43 f23e 8f1d d33e 1d01 e0bd
00000210: d35f d53e e035 8fbe dd03 31bf 71cf 713e
00000220: ae04 d9be e005 163e b433 a83e 6f1f 93bc
00000230: eccf 5abe 0d71 b03e fbef 97be 389f a33e
00000240: a081 bbbe 6135 5d3e e66f a2bd d2e7 063f
00000250: 5568 ce3e 8039 24bf 075b f93c d033 a7bd
00000260: ba9b fa3e ab5a 2e3e 56fa afbe 414a 0ebf
00000270: 2cf6 0d3f 529f 4e3e f06e 3ebe 811d be3e
00000280: 20ab 24be 0f31 a13e aec6 a1be 583b 0e3d
00000290: b304 363e a590 6ebe 5360 013e a708 90be
000002a0: 31d0 4b3e 8478 0bbe 9c8e 973e a3bb 5fbe
000002b0: e831 23be 9f04 693e 0c30 ec3d 4a20 763e
000002c0: f543 70bf f3cb 86be 1638 acbe b3de c7be
000002d0: 3bcb 92bd 1adb e5bb 7a56 83be 9e03 a0bd
000002e0: 6e63 3c3d bb96 be3e 891c 81be 3b6b 763c
000002f0: d111 fabd 3acb fc3c 7b1a f93e c71d 27bf
0.34264252 0.59542286 -0.44285205 -0.06769559 0.060901843 0.25086737 0.6716911 0.47606856
0.39863393 0.5338762 0.770031 0.20584995 0.31181133 0.99427825 0.4786589 1.0619408
0.6603178 0.50641763 0.15698452 0.5300173 0.1443571 -0.091659695 0.87729424 0.42786562
0.6884988 0.109165594 0.46171853 0.5656614 0.64025956 0.745759 0.2963517 -0.03655407
0.7477901 -0.06636161 0.71249473 0.15207773 0.48769584 0.29073572 0.62916934 0.60573953
0.9113434 0.42779148 0.42884478 0.8604724 0.4476055 1.0805835 0.26090837 0.40693387
0.6692046 0.22975011 1.258518 1.1754435 0.19606513 0.67114776 0.43359464 0.6852107
0.31201687 1.2806259 0.9701158 0.67576647 0.1686896 0.8538319 0.80944735 0.2448262
0.78061146 0.8137644 0.5424779 0.9246719 0.6168758 0.31320217 0.7114126 1.1328464
0.99452996 0.7265358 0.9704567 1.4431635 1.2272943 0.7098017 0.74338776 0.52604693
1.1712362 1.0009886 1.3223647 0.7343215 0.72633827 0.8301538 0.4621336 1.2564244
1.0783832 1.1931379 1.2083814 1.0308568 0.89784616 0.9941289 0.55625534 0.95002604
1.0351633 0.9622763 0.9990431 1.1203462 1.0836083 0.49962536 0.88309693 0.8861043
1.2402303 0.9813789 1.0045711 0.6724193 0.93679184 0.3478471 0.82962847 0.8146437
0.6312037 0.7808007 0.45503622 0.6909017 0.89849263 1.0552324 1.0143282 0.99456203
0.95349604 0.63953745 0.83822095 0.87760246 1.1415371 0.46063092 0.7515509 0.70240617
-0.09615552 0.47316876 0.4123349 -0.10937712 0.4167467 -0.2797079 -0.6914652 0.23614289
-0.42386383 0.14650679 0.32851946 -0.017959325 -0.21368378 0.3446125 -0.29675278 0.31957412
-0.36622334 0.21602394 -0.07931499 0.5269748 0.40313974 -0.6415024 0.030438913 -0.08164179
0.48946935 0.17026775 -0.3437068 -0.5558205 0.55453753 0.20177963 -0.18597007 0.37131885
-0.16080904 0.3148274 -0.31596893 0.034724563 0.1777523 -0.23297365 0.12634401 -0.281316
0.19903637 -0.13620192 0.2960099 -0.21848921 -0.15937006 0.22755669 0.11532602 0.24035755
-0.93853694 -0.26327476 -0.3363654 -0.39037094 -0.071676694 -0.0070146443 -0.25651914 -0.0781319
0.04599326 0.37224373 -0.25217083 0.015040214 -0.122104295 0.030858625 0.48653015 -0.6527981

conv2.rnn.bias_hh f4 [192]
00000000: d22f e83e 0633 e33e d203 7cbe b725 9fbd
00000010: 36fd 8d3d eec9 da3e 3551 253f 313c 063f
00000020: 02ce 173f 1e53 423f 0cc1 473f 1144 803e
00000030: a4e0 013f 0c30 8d3f d4b7 c43e 7641 683f
00000040: 96f2 1b3f c3b9 963e 427a 6e3d 7634 043f
00000050: 29b8 693e 2e7f 86be ba83 723f 551a 8d3e
00000060: ff40 1d3f 0392 b13e 2928 303f b73b 163f
00000070: a3d9 293f ff0d 4d3f e6ae 853e 8952 cdbc
00000080: 7cff 423f 1545 fe3d 8db2 2b3f 59ad 3a3e
00000090: 61ed 083f bded 3e3e b347 293f 256c 273f
000000a0: 1fa8 4c3f 10fc bf3e 220a d33e 6b98 513f
000000b0: 381c 0e3f 908b 663f fdb3 cb3e 488c c13e
000000c0: a6bf 363f 12ef 893e b84c 923f 564b 943f
000000d0: ef0e b23e 720d 383f 6825 a63e 518e 3d3f
000000e0: 16a3 033f 54de 973f ac9c 913f 65b3 2c3f
000000f0: 941e 203e aec8 5f3f d1e4 843f 49a1 983d
00000100: a2cd 4f3f f6d9 3d3f 8e03 113f 2643 873f
00000110: af33 163f 3ddf 913e e2e3 593f c6df 903f
00000120: 86ae 8b3f f5af 0a3f 4a57 893f 666f ac3f
00000130: dc76 9c3f 4e54 343f b7a1 523f 375b 173f
00000140: 821a 873f c219 853f 8ba7 933f 1a42 273f
00000150: 8c77 573f 2fc5 4e3f 04d1 c63e a497 8d3f
00000160: a740 a13f dae7 983f 1819 943f 3569 643f
00000170: f471 2e3f 8c20 773f c9f4 343f 887b 6c3f
00000180: b80f 843f 1c37 793f ca75 7c3f 0a2c 8b3f
00000190: 0fea 8f3f fe48 1c3f 9c04 3d3f f818 383f
000001a0: 8c3e 9b3f d81d 533f 6887 6d3f f4a4 473f
000001b0: b002 753f 94ab ad3e 44cf 593f 010d 253f
000001c0: 82cf 3b3f 84b5 6c3f 1439 c43e 6f8b 033f
000001d0: ba0c 773f 1707 863f d22c 4a3f a1bf 6e3f
000001e0: 9d15 843f 41d3 0e3f b3bf 3a3f 93c1 523f
000001f0: d195 963f 674e 173f e446 483f fecf 373f
00000200: 277f 1abd e8fa 423e 8b1c 513e cefc 6dbd
00000210: a919 a93e 868b aebd 0c6a 2cbf 99ee 8e3e
00000220: 5137 a4bd 8c27 893e fdfd 8b3d eeff 8b3c
00000230: 9626 2bbd f5bf 6c3d 4a87 a3bd 532b ce3c
00000240: 719d 92be 0804 703a 1ec2 983d c0f9 323e
00000250: bd8f be3e c3a2 2ebf b816 e1bd 7b68 7c3d
00000260: 645d 5f3d 134b 183e c7f5 dbbe b296 57bf
00000270: 0852 c93e 20a4 78be cadd c3be a6cf 373e
00000280: 91ae 80be d309 0e3e 34c3 33be ec47 5b3d
00000290: e45d 723e 8c61 e9bd 9707 373d b7f9 083e
000002a0: eed7 3d3e c1e4 60bd 5bc2 023e faff 11be
000002b0: a42f 5e3d af6b a2bc 6353 ad3d 81e3 b53d
000002c0: 8586 02bf bf06 3cbe ef68 a8be a064 86be
000002d0: 5150 563c fb47 eebc c84e 49be 45c2 96be
000002e0: cb11 053c aed7 533e 1a0f 3bbe 6a91 9a3c
000002f0: 4acf 04be c6c0 273d 4716 c73e 745c 2abf
0.45348984 0.44374865 -0.24610832 -0.077708654 0.06933062 0.42732185 0.6457704 0.52435595
0.5929872 0.75908077 0.7802894 0.2505193 0.507334 1.1030288 0.384215 0.90724885
0.6091703 0.294386 0.058222063 0.5164255 0.22824158 -0.26268905 0.9473225 0.27559152
0.614273 0.3468171 0.6881128 0.5868487 0.6634771 0.8009948 0.2611 -0.02506377
0.7617109 0.1241552 0.6706932 0.1823019 0.5348721 0.18645377 0.6612503 0.6539939
0.7994403 0.37496996 0.41218668 0.81873196 0.5551181 0.90056705 0.39785758 0.3780234
0.7138618 0.2694021 1.1429663 1.1585491 0.34777018 0.71895516 0.32450414 0.7404528
0.51420724 1.1864724 1.1375937 0.67461234 0.15636665 0.8741559 1.0382329 0.07452638
0.81173146 0.74160707 0.5664605 1.0567367 0.5867261 0.2849063 0.85113347 1.131829
1.0912635 0.5417474 1.0729764 1.3471496 1.2223773 0.7044114 0.8227801 0.5912356
1.0554965 1.0398486 1.1535505 0.6533524 0.8416679 0.8076963 0.3883134 1.1061902
1.2597855 1.1945755 1.1570158 0.89223033 0.6814263 0.9653404 0.7068601 0.92375994
1.0317297 0.97349715 0.9861723 1.0872815 1.1243304 0.6104888 0.7383516 0.719131
1.2128463 0.8246741 0.9278474 0.77986073 0.95707226 0.33919966 0.8508189 0.6447297
0.73363507 0.9246447 0.38324797 0.51384634 0.96503794 1.0470914 0.7897464 0.9326115
1.0319096 0.557911 0.7294876 0.8232662 1.176447 0.5910401 0.7823317 0.71801746
-0.03771892 0.19041026 0.20421045 -0.05810242 0.3302739 -0.08522706 -0.67349315 0.2791641
-0.08018363 0.26787984 0.06835554 0.01708981 -0.041784845 0.057800252 -0.07984789 0.025167143
-0.28635743 0.0009155874 0.074589 0.17478085 0.3721904 -0.68217105 -0.109906614 0.061623078
0.054532424 0.14872389 -0.4296095 -0.8421432 0.39320397 -0.24281359 -0.3825515 0.17950305
-0.25133184 0.13870935 -0.17554933 0.053535387 0.23668629 -0.11395559 0.044684973 0.13376509
0.18539402 -0.054905657 0.12769453 -0.14257804 0.054244652 -0.019826738 0.084631704 0.088812836
-0.5098651 -0.18361948 -0.32892558 -0.26248646 0.013080672 -0.029087057 -0.19658959 -0.2944509
0.008121918 0.20687744 -0.1826748 0.018868167 -0.129697 0.040955327 0.38884184 -0.6654732

conv3.weight f4 [4, 128, 128]
00000000: 90ec 723d 9d4a 5e3e c32e 32be 113e f4bd
00000010: aa65 0e3d ee98 a7bc 413e 3b3e 06cb 1b3e
00000020: 87f6 2c3e 0c23 41be bb62 19be 4ccd 593c
00000030: c5f8 203e 7925 93bd 8118 583e e2dc bf3d
00000040: 82ca c03e c049 9c3d 682f bcbd 4033 983d
00000050: f025 7fbd 63c5 d9bd d5b5 92bc a99c 4abe
00000060: 8280 7f3e bdb6 b4bd d8d6 0bbd 94a2 1f3d
00000070: c373 9d3e 2482 843e 6aaa 823d c0b7 abbe
00000080: 9693 e43d c476 673b 5130 a03e 0d0a cf3d
00000090: 4e37 85be 0fa0 983d 0f54 453e d4c7 2c3e
000000a0: 4bb5 4c3e 3897 88bd 03f1 333e c2f2 b23e
000000b0: 4487 033d b3a3 2cbd 50a7 733e 39c4 af3c
000000c0: 3272 313b c3d4 a0bd eb22 cebd 7d67 15be
000000d0: aa31 27bf e78e f93b bb82 353e 57d0 d23d
000000e0: a833 883d 73cb bebe b867 c8bd 2106 19bd
000000f0: 6eef b93d 89dc 963e c8ae 953e 3b5d 133e
00000100: 31dc c4bd 2104 043e 9065 90bd b0c4 553e
00000110: 1b15 8c3d 194a 02be c943 e83d f70a 9b3c
00000120: 3993 13bd 42d6 233c 6f19 6ebe c9f8 cabb
00000130: 52ec 4ebe 09d7 003e 2512 77bd 384d 483e
00000140: 9343 70bd 59db 713d 7f2b e13d 1d14 f1bd
00000150: ef6d 1fbe f142 ddbe 706b 0d3e 3903 0f3e
00000160: 3fc0 29be 6208 393e bf71 813a c0c7 c4bd
00000170: 63f0 16bd 365b fb3d 14dc b6bd d30b d73c
00000180: 7594 48bd a2be b7be 3f80 b6bc 68d0 d4bd
00000190: ed73 cc3e f6e1 2abd 0166 7e3c f77d 14bc
000001a0: 4658 a8bd 0973 433e 3af8 093e e8e9 5dbe
000001b0: 3f84 39be a095 e73d 9edf b43d 22ae 6cbe
000001c0: e1ef 90be 25de 3fbe ce0e 383d fd06 f4bc
000001d0: aa08 00be 2d59 0d3f 35b9 03bd 19d2 02bf
000001e0: 9caf c0bd f929 32be c83f cc3d 38be 7dbd
000001f0: a8bc 5b3d e8f7 2bbe 43bb 603e 8bd0 c7bd
00000200: a064 89bc ad86 523b 9738 3e3e bc98 e43e
00000210: b335 a13d e99e 28be 42f0 be3d 6a94 b53e
00000220: 4bec 603e c26d 8dbd 8500 bb3b 5d3f cebd
00000230: 267a 143e d898 d2be 418f a73e cb4d 29be
00000240: 6237 c2be eb55 cf3d 0548 c8bd a056 43be
00000250: f99e b4be abf1 0cbe 3ec1 903e 409d 073e
00000260: c7fd 333e 1556 92bd 891f f6bd ea24 35bc
00000270: dc52 c9be 5fa3 40be d302 70be eb2e a93c
00000280: 0fa1 b43e f2ac 91be 9a05 b8be ad68 e4be
00000290: ae6c 833e da85 bcba 43fd a23d 7329 b0be
000002a0: cdf3 d83d 5a88 53be a04f 69bd 00d0 ff3e
000002b0: 2c8f 89bd dbfb 203d 10e4 4d3e 2f34 e13d
000002c0: 4469 d5bd 3731 6b3e 9739 ed3d e554 80be
000002d0: edba 343d 6fe2 03be c46c bb3e a8b9 83bd
000002e0: 8413 453e 3108 db3e 420c a53e 9884 c13e
000002f0: 5551 01be 5656 dc3e 8d2b 2c3e edc7 03bd
00000300: 5047 87be bb26 72bc 71f9 bc3e 997d 6ebe
00000310: c277 ee3b 045e 52be 1a64 c33e c17a 3fbd
00000320: e852 c1bd f2e1 e0bd aeef 143e 5db4 cdbd
00000330: c9b2 99be 8ac6 59be cb3b 97be bc9c eb3d
00000340: 3171 f63e 639c 493e 925f 4dbe 58c0 a13d
00000350: 473b 44bd ab2d 48be 934c 69bd 881c b03d
00000360: 5241 4bbd 9a92 1c3e ad04 afbd 6417 0a3e
00000370: 074f dc3e 340a 853c e0e3 fcbe 779b 58bd
00000380: 006a e53e 69d4 aebe ae50 403e 2279 383e
00000390: e562 3d3d 551e 943d a880 5abe 8d8f ae3c
000003a0: 92d2 54be 5c4b 0c3e b23f 60be f76e 8dbb
000003b0: 3052 85be 09cf 11be 0ece b4bd 2ff4 053e
000003c0: 73bf b6bd 6430 543c ad8a 8a3d d7fe b1bd
000003d0: a577 163e 1c26 29be 4605 c6be de4a 9a3e
000003e0: c3d9 8ebd 0b56 a53e 49ab 02be 8ba4 893e
000003f0: e80b b23d 83a3 813e 1759 4ebe cc7f b13d
0.059307635 0.2170815 -0.1740065 -0.11925901 0.034764923 -0.020458665 0.18285467 0.15214166
0.16890918 -0.18861026 -0.14979069 0.0132935755 0.15719898 -0.07184882 0.21103097 0.09368302
0.376545 0.07631254 -0.091887295 0.0743165 -0.06229204 -0.10633352 -0.01790897 -0.19786324
0.24951366 -0.08823917 -0.034140438 0.038973406 0.30752382 0.2588054 0.0638016 -0.33538628
0.11160962 0.0035318593 0.31286862 0.10109339 -0.26018757 0.07452404 0.19270347 0.16873103
0.19991033 -0.06669468 0.17572407 0.34950835 0.03211142 -0.042148303 0.23794293 0.021455871
0.0027076122 -0.07853081 -0.10065254 -0.14590259 -0.65310156 0.0076159122 0.17725651 0.10293644
0.06650478 -0.37264594 -0.09785408 -0.03735936 0.09078871 0.2946513 0.2923491 0.14391033
-0.09612311 0.128922 -0.070506215 0.20875812 0.06839963 -0.12723579 0.11341054 0.018926127
-0.036029074 0.0099998135 -0.2325189 -0.0061942083 -0.20207337 0.1258203 -0.06032004 0.19560707
-0.058658194 0.059047077 0.10994624 -0.117714144 -0.1556928 -0.43215135 0.13810515 0.13966073
-0.16577242 0.18069604 0.0009875818 -0.09608412 -0.036850344 0.122732565 -0.08928695 0.026250755
-0.048969705 -0.3588763 -0.02227795 -0.10391313 0.39932194 -0.0417194 0.015527249 -0.0090632355
-0.08219962 0.19086851 0.13473597 -0.2167126 -0.18116854 0.113078356 0.08831714 -0.23113301
-0.28308013 -0.18737085 0.044935994 -0.029788489 -0.12503305 0.55214196 -0.03215905 -0.51101834
-0.09408495 -0.17398824 0.09973103 -0.061948985 0.053646713 -0.16793787 0.21946435 -0.09756573
-0.016771615 0.003212373 0.18576275 0.44647777 0.078715704 -0.1646687 0.09323169 0.35464793
0.21965139 -0.069057 0.005706849 -0.10070679 0.14499721 -0.41132236 0.32726482 -0.16533582
-0.3793288 0.101238094 -0.09779362 -0.19076014 -0.35277537 -0.13764064 0.28272432 0.1324358
0.17577277 -0.07145325 -0.120177336 -0.011056164 -0.3932103 -0.18812321 -0.23438577 0.020652255
0.35279128 -0.2845226 -0.35941774 -0.4461111 0.25668854 -0.0014383153 0.07958462 -0.34406623
0.10593376 -0.20657483 -0.056960702 0.4996338 -0.06716761 0.039302688 0.2010653 0.10996281
-0.104204684 0.22967993 0.1158325 -0.2506477 0.04412358 -0.12879346 0.3660642 -0.064318955
0.19245726 0.42779687 0.32235914 0.37796474 -0.12628682 0.4303462 0.16813488 -0.032173086
-0.26421595 -0.014779742 0.3690906 -0.23290099 0.00727746 -0.20543677 0.3816231 -0.046747927
-0.09439641 -0.10980596 0.14544556 -0.10044167 -0.30019215 -0.21267143 -0.29537806 0.11504504
0.48133233 0.19688563 -0.20055988 0.07898015 -0.047908094 -0.19548671 -0.056957792 0.08599192
-0.04962284 0.15290299 -0.08545814 0.13485485 0.43029043 0.016240217 -0.49392605 -0.052882638
0.44807434 -0.3414643 0.18780777 0.18014959 0.04623689 0.07232348 -0.21338141 0.021308685
-0.20783451 0.13700622 -0.21899298 -0.0043162066 -0.26039267 -0.14239134 -0.08828364 0.1308143
-0.08923235 0.01295099 0.067647316 -0.08691185 0.14694078 -0.16518444 -0.38675898 0.30135244
-0.069751285 0.32292208 -0.12760653 0.2688335 0.08693677 0.25320062 -0.20151173 0.086669534
